saved_model_schema_version: 1
meta_graphs {
  meta_info_def {
    stripped_op_list {
      op {
        name: "Abs"
        input_arg {
          name: "x"
          type_attr: "T"
        }
        output_arg {
          name: "y"
          type_attr: "T"
        }
        attr {
          name: "T"
          type: "type"
          allowed_values {
            list {
              type: DT_BFLOAT16
              type: DT_HALF
              type: DT_FLOAT
              type: DT_DOUBLE
              type: DT_INT32
              type: DT_INT64
            }
          }
        }
      }
      op {
        name: "Add"
        input_arg {
          name: "x"
          type_attr: "T"
        }
        input_arg {
          name: "y"
          type_attr: "T"
        }
        output_arg {
          name: "z"
          type_attr: "T"
        }
        attr {
          name: "T"
          type: "type"
          allowed_values {
            list {
              type: DT_BFLOAT16
              type: DT_HALF
              type: DT_FLOAT
              type: DT_DOUBLE
              type: DT_UINT8
              type: DT_INT8
              type: DT_INT16
              type: DT_INT32
              type: DT_INT64
              type: DT_COMPLEX64
              type: DT_COMPLEX128
              type: DT_STRING
            }
          }
        }
      }
      op {
        name: "All"
        input_arg {
          name: "input"
          type: DT_BOOL
        }
        input_arg {
          name: "reduction_indices"
          type_attr: "Tidx"
        }
        output_arg {
          name: "output"
          type: DT_BOOL
        }
        attr {
          name: "keep_dims"
          type: "bool"
          default_value {
            b: false
          }
        }
        attr {
          name: "Tidx"
          type: "type"
          default_value {
            type: DT_INT32
          }
          allowed_values {
            list {
              type: DT_INT32
              type: DT_INT64
            }
          }
        }
      }
      op {
        name: "Any"
        input_arg {
          name: "input"
          type: DT_BOOL
        }
        input_arg {
          name: "reduction_indices"
          type_attr: "Tidx"
        }
        output_arg {
          name: "output"
          type: DT_BOOL
        }
        attr {
          name: "keep_dims"
          type: "bool"
          default_value {
            b: false
          }
        }
        attr {
          name: "Tidx"
          type: "type"
          default_value {
            type: DT_INT32
          }
          allowed_values {
            list {
              type: DT_INT32
              type: DT_INT64
            }
          }
        }
      }
      op {
        name: "Assign"
        input_arg {
          name: "ref"
          type_attr: "T"
          is_ref: true
        }
        input_arg {
          name: "value"
          type_attr: "T"
        }
        output_arg {
          name: "output_ref"
          type_attr: "T"
          is_ref: true
        }
        attr {
          name: "T"
          type: "type"
        }
        attr {
          name: "validate_shape"
          type: "bool"
          default_value {
            b: true
          }
        }
        attr {
          name: "use_locking"
          type: "bool"
          default_value {
            b: true
          }
        }
        allows_uninitialized_input: true
      }
      op {
        name: "BatchMatMulV2"
        input_arg {
          name: "x"
          type_attr: "T"
        }
        input_arg {
          name: "y"
          type_attr: "T"
        }
        output_arg {
          name: "output"
          type_attr: "T"
        }
        attr {
          name: "T"
          type: "type"
          allowed_values {
            list {
              type: DT_BFLOAT16
              type: DT_HALF
              type: DT_FLOAT
              type: DT_DOUBLE
              type: DT_INT32
              type: DT_INT64
              type: DT_COMPLEX64
              type: DT_COMPLEX128
            }
          }
        }
        attr {
          name: "adj_x"
          type: "bool"
          default_value {
            b: false
          }
        }
        attr {
          name: "adj_y"
          type: "bool"
          default_value {
            b: false
          }
        }
      }
      op {
        name: "BiasAdd"
        input_arg {
          name: "value"
          type_attr: "T"
        }
        input_arg {
          name: "bias"
          type_attr: "T"
        }
        output_arg {
          name: "output"
          type_attr: "T"
        }
        attr {
          name: "T"
          type: "type"
          allowed_values {
            list {
              type: DT_FLOAT
              type: DT_DOUBLE
              type: DT_INT32
              type: DT_UINT8
              type: DT_INT16
              type: DT_INT8
              type: DT_COMPLEX64
              type: DT_INT64
              type: DT_QINT8
              type: DT_QUINT8
              type: DT_QINT32
              type: DT_BFLOAT16
              type: DT_UINT16
              type: DT_COMPLEX128
              type: DT_HALF
              type: DT_UINT32
              type: DT_UINT64
            }
          }
        }
        attr {
          name: "data_format"
          type: "string"
          default_value {
            s: "NHWC"
          }
          allowed_values {
            list {
              s: "NHWC"
              s: "NCHW"
            }
          }
        }
      }
      op {
        name: "Cast"
        input_arg {
          name: "x"
          type_attr: "SrcT"
        }
        output_arg {
          name: "y"
          type_attr: "DstT"
        }
        attr {
          name: "SrcT"
          type: "type"
        }
        attr {
          name: "DstT"
          type: "type"
        }
        attr {
          name: "Truncate"
          type: "bool"
          default_value {
            b: false
          }
        }
      }
      op {
        name: "ConcatV2"
        input_arg {
          name: "values"
          type_attr: "T"
          number_attr: "N"
        }
        input_arg {
          name: "axis"
          type_attr: "Tidx"
        }
        output_arg {
          name: "output"
          type_attr: "T"
        }
        attr {
          name: "N"
          type: "int"
          has_minimum: true
          minimum: 2
        }
        attr {
          name: "T"
          type: "type"
        }
        attr {
          name: "Tidx"
          type: "type"
          default_value {
            type: DT_INT32
          }
          allowed_values {
            list {
              type: DT_INT32
              type: DT_INT64
            }
          }
        }
      }
      op {
        name: "Const"
        output_arg {
          name: "output"
          type_attr: "dtype"
        }
        attr {
          name: "value"
          type: "tensor"
        }
        attr {
          name: "dtype"
          type: "type"
        }
      }
      op {
        name: "Cos"
        input_arg {
          name: "x"
          type_attr: "T"
        }
        output_arg {
          name: "y"
          type_attr: "T"
        }
        attr {
          name: "T"
          type: "type"
          allowed_values {
            list {
              type: DT_BFLOAT16
              type: DT_HALF
              type: DT_FLOAT
              type: DT_DOUBLE
              type: DT_COMPLEX64
              type: DT_COMPLEX128
            }
          }
        }
      }
      op {
        name: "DatasetToSingleElement"
        input_arg {
          name: "dataset"
          type: DT_VARIANT
        }
        output_arg {
          name: "components"
          type_list_attr: "output_types"
        }
        attr {
          name: "output_types"
          type: "list(type)"
          has_minimum: true
          minimum: 1
        }
        attr {
          name: "output_shapes"
          type: "list(shape)"
          has_minimum: true
          minimum: 1
        }
        is_stateful: true
      }
      op {
        name: "Enter"
        input_arg {
          name: "data"
          type_attr: "T"
        }
        output_arg {
          name: "output"
          type_attr: "T"
        }
        attr {
          name: "T"
          type: "type"
        }
        attr {
          name: "frame_name"
          type: "string"
        }
        attr {
          name: "is_constant"
          type: "bool"
          default_value {
            b: false
          }
        }
        attr {
          name: "parallel_iterations"
          type: "int"
          default_value {
            i: 10
          }
        }
      }
      op {
        name: "Equal"
        input_arg {
          name: "x"
          type_attr: "T"
        }
        input_arg {
          name: "y"
          type_attr: "T"
        }
        output_arg {
          name: "z"
          type: DT_BOOL
        }
        attr {
          name: "T"
          type: "type"
          allowed_values {
            list {
              type: DT_BFLOAT16
              type: DT_HALF
              type: DT_FLOAT
              type: DT_DOUBLE
              type: DT_UINT8
              type: DT_INT8
              type: DT_INT16
              type: DT_INT32
              type: DT_INT64
              type: DT_COMPLEX64
              type: DT_QUINT8
              type: DT_QINT8
              type: DT_QINT32
              type: DT_STRING
              type: DT_BOOL
              type: DT_COMPLEX128
            }
          }
        }
        is_commutative: true
      }
      op {
        name: "Exit"
        input_arg {
          name: "data"
          type_attr: "T"
        }
        output_arg {
          name: "output"
          type_attr: "T"
        }
        attr {
          name: "T"
          type: "type"
        }
      }
      op {
        name: "Exp"
        input_arg {
          name: "x"
          type_attr: "T"
        }
        output_arg {
          name: "y"
          type_attr: "T"
        }
        attr {
          name: "T"
          type: "type"
          allowed_values {
            list {
              type: DT_BFLOAT16
              type: DT_HALF
              type: DT_FLOAT
              type: DT_DOUBLE
              type: DT_COMPLEX64
              type: DT_COMPLEX128
            }
          }
        }
      }
      op {
        name: "ExpandDims"
        input_arg {
          name: "input"
          type_attr: "T"
        }
        input_arg {
          name: "dim"
          type_attr: "Tdim"
        }
        output_arg {
          name: "output"
          type_attr: "T"
        }
        attr {
          name: "T"
          type: "type"
        }
        attr {
          name: "Tdim"
          type: "type"
          default_value {
            type: DT_INT32
          }
          allowed_values {
            list {
              type: DT_INT32
              type: DT_INT64
            }
          }
        }
      }
      op {
        name: "Fill"
        input_arg {
          name: "dims"
          type_attr: "index_type"
        }
        input_arg {
          name: "value"
          type_attr: "T"
        }
        output_arg {
          name: "output"
          type_attr: "T"
        }
        attr {
          name: "T"
          type: "type"
        }
        attr {
          name: "index_type"
          type: "type"
          default_value {
            type: DT_INT32
          }
          allowed_values {
            list {
              type: DT_INT32
              type: DT_INT64
            }
          }
        }
      }
      op {
        name: "FloorDiv"
        input_arg {
          name: "x"
          type_attr: "T"
        }
        input_arg {
          name: "y"
          type_attr: "T"
        }
        output_arg {
          name: "z"
          type_attr: "T"
        }
        attr {
          name: "T"
          type: "type"
          allowed_values {
            list {
              type: DT_BFLOAT16
              type: DT_HALF
              type: DT_FLOAT
              type: DT_DOUBLE
              type: DT_UINT8
              type: DT_INT8
              type: DT_UINT16
              type: DT_INT16
              type: DT_INT32
              type: DT_INT64
              type: DT_COMPLEX64
              type: DT_COMPLEX128
            }
          }
        }
      }
      op {
        name: "FloorMod"
        input_arg {
          name: "x"
          type_attr: "T"
        }
        input_arg {
          name: "y"
          type_attr: "T"
        }
        output_arg {
          name: "z"
          type_attr: "T"
        }
        attr {
          name: "T"
          type: "type"
          allowed_values {
            list {
              type: DT_INT32
              type: DT_INT64
              type: DT_BFLOAT16
              type: DT_HALF
              type: DT_FLOAT
              type: DT_DOUBLE
            }
          }
        }
      }
      op {
        name: "GatherNd"
        input_arg {
          name: "params"
          type_attr: "Tparams"
        }
        input_arg {
          name: "indices"
          type_attr: "Tindices"
        }
        output_arg {
          name: "output"
          type_attr: "Tparams"
        }
        attr {
          name: "Tparams"
          type: "type"
        }
        attr {
          name: "Tindices"
          type: "type"
          allowed_values {
            list {
              type: DT_INT32
              type: DT_INT64
            }
          }
        }
      }
      op {
        name: "GatherV2"
        input_arg {
          name: "params"
          type_attr: "Tparams"
        }
        input_arg {
          name: "indices"
          type_attr: "Tindices"
        }
        input_arg {
          name: "axis"
          type_attr: "Taxis"
        }
        output_arg {
          name: "output"
          type_attr: "Tparams"
        }
        attr {
          name: "batch_dims"
          type: "int"
          default_value {
            i: 0
          }
        }
        attr {
          name: "Tparams"
          type: "type"
        }
        attr {
          name: "Tindices"
          type: "type"
          allowed_values {
            list {
              type: DT_INT32
              type: DT_INT64
            }
          }
        }
        attr {
          name: "Taxis"
          type: "type"
          allowed_values {
            list {
              type: DT_INT32
              type: DT_INT64
            }
          }
        }
      }
      op {
        name: "Greater"
        input_arg {
          name: "x"
          type_attr: "T"
        }
        input_arg {
          name: "y"
          type_attr: "T"
        }
        output_arg {
          name: "z"
          type: DT_BOOL
        }
        attr {
          name: "T"
          type: "type"
          allowed_values {
            list {
              type: DT_FLOAT
              type: DT_DOUBLE
              type: DT_INT32
              type: DT_UINT8
              type: DT_INT16
              type: DT_INT8
              type: DT_INT64
              type: DT_BFLOAT16
              type: DT_UINT16
              type: DT_HALF
              type: DT_UINT32
              type: DT_UINT64
            }
          }
        }
      }
      op {
        name: "Identity"
        input_arg {
          name: "input"
          type_attr: "T"
        }
        output_arg {
          name: "output"
          type_attr: "T"
        }
        attr {
          name: "T"
          type: "type"
        }
      }
      op {
        name: "ImageSummary"
        input_arg {
          name: "tag"
          type: DT_STRING
        }
        input_arg {
          name: "tensor"
          type_attr: "T"
        }
        output_arg {
          name: "summary"
          type: DT_STRING
        }
        attr {
          name: "max_images"
          type: "int"
          default_value {
            i: 3
          }
          has_minimum: true
          minimum: 1
        }
        attr {
          name: "T"
          type: "type"
          default_value {
            type: DT_FLOAT
          }
          allowed_values {
            list {
              type: DT_UINT8
              type: DT_FLOAT
              type: DT_HALF
              type: DT_DOUBLE
            }
          }
        }
        attr {
          name: "bad_color"
          type: "tensor"
          default_value {
            tensor {
              dtype: DT_UINT8
              tensor_shape {
                dim {
                  size: 4
                }
              }
              int_val: 255
              int_val: 0
              int_val: 0
              int_val: 255
            }
          }
        }
      }
      op {
        name: "IsFinite"
        input_arg {
          name: "x"
          type_attr: "T"
        }
        output_arg {
          name: "y"
          type: DT_BOOL
        }
        attr {
          name: "T"
          type: "type"
          allowed_values {
            list {
              type: DT_BFLOAT16
              type: DT_HALF
              type: DT_FLOAT
              type: DT_DOUBLE
            }
          }
        }
      }
      op {
        name: "Less"
        input_arg {
          name: "x"
          type_attr: "T"
        }
        input_arg {
          name: "y"
          type_attr: "T"
        }
        output_arg {
          name: "z"
          type: DT_BOOL
        }
        attr {
          name: "T"
          type: "type"
          allowed_values {
            list {
              type: DT_FLOAT
              type: DT_DOUBLE
              type: DT_INT32
              type: DT_UINT8
              type: DT_INT16
              type: DT_INT8
              type: DT_INT64
              type: DT_BFLOAT16
              type: DT_UINT16
              type: DT_HALF
              type: DT_UINT32
              type: DT_UINT64
            }
          }
        }
      }
      op {
        name: "Log"
        input_arg {
          name: "x"
          type_attr: "T"
        }
        output_arg {
          name: "y"
          type_attr: "T"
        }
        attr {
          name: "T"
          type: "type"
          allowed_values {
            list {
              type: DT_BFLOAT16
              type: DT_HALF
              type: DT_FLOAT
              type: DT_DOUBLE
              type: DT_COMPLEX64
              type: DT_COMPLEX128
            }
          }
        }
      }
      op {
        name: "LogicalAnd"
        input_arg {
          name: "x"
          type: DT_BOOL
        }
        input_arg {
          name: "y"
          type: DT_BOOL
        }
        output_arg {
          name: "z"
          type: DT_BOOL
        }
        is_commutative: true
      }
      op {
        name: "LogicalNot"
        input_arg {
          name: "x"
          type: DT_BOOL
        }
        output_arg {
          name: "y"
          type: DT_BOOL
        }
      }
      op {
        name: "LoopCond"
        input_arg {
          name: "input"
          type: DT_BOOL
        }
        output_arg {
          name: "output"
          type: DT_BOOL
        }
      }
      op {
        name: "MapDataset"
        input_arg {
          name: "input_dataset"
          type: DT_VARIANT
        }
        input_arg {
          name: "other_arguments"
          type_list_attr: "Targuments"
        }
        output_arg {
          name: "handle"
          type: DT_VARIANT
        }
        attr {
          name: "f"
          type: "func"
        }
        attr {
          name: "Targuments"
          type: "list(type)"
          has_minimum: true
        }
        attr {
          name: "output_types"
          type: "list(type)"
          has_minimum: true
          minimum: 1
        }
        attr {
          name: "output_shapes"
          type: "list(shape)"
          has_minimum: true
          minimum: 1
        }
        attr {
          name: "use_inter_op_parallelism"
          type: "bool"
          default_value {
            b: true
          }
        }
        attr {
          name: "preserve_cardinality"
          type: "bool"
          default_value {
            b: false
          }
        }
      }
      op {
        name: "MatMul"
        input_arg {
          name: "a"
          type_attr: "T"
        }
        input_arg {
          name: "b"
          type_attr: "T"
        }
        output_arg {
          name: "product"
          type_attr: "T"
        }
        attr {
          name: "transpose_a"
          type: "bool"
          default_value {
            b: false
          }
        }
        attr {
          name: "transpose_b"
          type: "bool"
          default_value {
            b: false
          }
        }
        attr {
          name: "T"
          type: "type"
          allowed_values {
            list {
              type: DT_BFLOAT16
              type: DT_HALF
              type: DT_FLOAT
              type: DT_DOUBLE
              type: DT_INT32
              type: DT_INT64
              type: DT_COMPLEX64
              type: DT_COMPLEX128
            }
          }
        }
      }
      op {
        name: "MatrixBandPart"
        input_arg {
          name: "input"
          type_attr: "T"
        }
        input_arg {
          name: "num_lower"
          type_attr: "Tindex"
        }
        input_arg {
          name: "num_upper"
          type_attr: "Tindex"
        }
        output_arg {
          name: "band"
          type_attr: "T"
        }
        attr {
          name: "T"
          type: "type"
        }
        attr {
          name: "Tindex"
          type: "type"
          default_value {
            type: DT_INT64
          }
          allowed_values {
            list {
              type: DT_INT32
              type: DT_INT64
            }
          }
        }
      }
      op {
        name: "Max"
        input_arg {
          name: "input"
          type_attr: "T"
        }
        input_arg {
          name: "reduction_indices"
          type_attr: "Tidx"
        }
        output_arg {
          name: "output"
          type_attr: "T"
        }
        attr {
          name: "keep_dims"
          type: "bool"
          default_value {
            b: false
          }
        }
        attr {
          name: "T"
          type: "type"
          allowed_values {
            list {
              type: DT_FLOAT
              type: DT_DOUBLE
              type: DT_INT32
              type: DT_UINT8
              type: DT_INT16
              type: DT_INT8
              type: DT_COMPLEX64
              type: DT_INT64
              type: DT_QINT8
              type: DT_QUINT8
              type: DT_QINT32
              type: DT_BFLOAT16
              type: DT_UINT16
              type: DT_COMPLEX128
              type: DT_HALF
              type: DT_UINT32
              type: DT_UINT64
            }
          }
        }
        attr {
          name: "Tidx"
          type: "type"
          default_value {
            type: DT_INT32
          }
          allowed_values {
            list {
              type: DT_INT32
              type: DT_INT64
            }
          }
        }
      }
      op {
        name: "Maximum"
        input_arg {
          name: "x"
          type_attr: "T"
        }
        input_arg {
          name: "y"
          type_attr: "T"
        }
        output_arg {
          name: "z"
          type_attr: "T"
        }
        attr {
          name: "T"
          type: "type"
          allowed_values {
            list {
              type: DT_BFLOAT16
              type: DT_HALF
              type: DT_FLOAT
              type: DT_DOUBLE
              type: DT_INT32
              type: DT_INT64
            }
          }
        }
      }
      op {
        name: "Mean"
        input_arg {
          name: "input"
          type_attr: "T"
        }
        input_arg {
          name: "reduction_indices"
          type_attr: "Tidx"
        }
        output_arg {
          name: "output"
          type_attr: "T"
        }
        attr {
          name: "keep_dims"
          type: "bool"
          default_value {
            b: false
          }
        }
        attr {
          name: "T"
          type: "type"
          allowed_values {
            list {
              type: DT_FLOAT
              type: DT_DOUBLE
              type: DT_INT32
              type: DT_UINT8
              type: DT_INT16
              type: DT_INT8
              type: DT_COMPLEX64
              type: DT_INT64
              type: DT_QINT8
              type: DT_QUINT8
              type: DT_QINT32
              type: DT_BFLOAT16
              type: DT_UINT16
              type: DT_COMPLEX128
              type: DT_HALF
              type: DT_UINT32
              type: DT_UINT64
            }
          }
        }
        attr {
          name: "Tidx"
          type: "type"
          default_value {
            type: DT_INT32
          }
          allowed_values {
            list {
              type: DT_INT32
              type: DT_INT64
            }
          }
        }
      }
      op {
        name: "Merge"
        input_arg {
          name: "inputs"
          type_attr: "T"
          number_attr: "N"
        }
        output_arg {
          name: "output"
          type_attr: "T"
        }
        output_arg {
          name: "value_index"
          type: DT_INT32
        }
        attr {
          name: "T"
          type: "type"
        }
        attr {
          name: "N"
          type: "int"
          has_minimum: true
          minimum: 1
        }
      }
      op {
        name: "MergeV2Checkpoints"
        input_arg {
          name: "checkpoint_prefixes"
          type: DT_STRING
        }
        input_arg {
          name: "destination_prefix"
          type: DT_STRING
        }
        attr {
          name: "delete_old_dirs"
          type: "bool"
          default_value {
            b: true
          }
        }
        is_stateful: true
      }
      op {
        name: "Mul"
        input_arg {
          name: "x"
          type_attr: "T"
        }
        input_arg {
          name: "y"
          type_attr: "T"
        }
        output_arg {
          name: "z"
          type_attr: "T"
        }
        attr {
          name: "T"
          type: "type"
          allowed_values {
            list {
              type: DT_BFLOAT16
              type: DT_HALF
              type: DT_FLOAT
              type: DT_DOUBLE
              type: DT_UINT8
              type: DT_INT8
              type: DT_UINT16
              type: DT_INT16
              type: DT_INT32
              type: DT_INT64
              type: DT_COMPLEX64
              type: DT_COMPLEX128
            }
          }
        }
        is_commutative: true
      }
      op {
        name: "Neg"
        input_arg {
          name: "x"
          type_attr: "T"
        }
        output_arg {
          name: "y"
          type_attr: "T"
        }
        attr {
          name: "T"
          type: "type"
          allowed_values {
            list {
              type: DT_BFLOAT16
              type: DT_HALF
              type: DT_FLOAT
              type: DT_DOUBLE
              type: DT_INT32
              type: DT_INT64
              type: DT_COMPLEX64
              type: DT_COMPLEX128
            }
          }
        }
      }
      op {
        name: "NextIteration"
        input_arg {
          name: "data"
          type_attr: "T"
        }
        output_arg {
          name: "output"
          type_attr: "T"
        }
        attr {
          name: "T"
          type: "type"
        }
      }
      op {
        name: "NoOp"
      }
      op {
        name: "NotEqual"
        input_arg {
          name: "x"
          type_attr: "T"
        }
        input_arg {
          name: "y"
          type_attr: "T"
        }
        output_arg {
          name: "z"
          type: DT_BOOL
        }
        attr {
          name: "T"
          type: "type"
          allowed_values {
            list {
              type: DT_BFLOAT16
              type: DT_HALF
              type: DT_FLOAT
              type: DT_DOUBLE
              type: DT_UINT8
              type: DT_INT8
              type: DT_INT16
              type: DT_INT32
              type: DT_INT64
              type: DT_COMPLEX64
              type: DT_QUINT8
              type: DT_QINT8
              type: DT_QINT32
              type: DT_STRING
              type: DT_BOOL
              type: DT_COMPLEX128
            }
          }
        }
        is_commutative: true
      }
      op {
        name: "Pack"
        input_arg {
          name: "values"
          type_attr: "T"
          number_attr: "N"
        }
        output_arg {
          name: "output"
          type_attr: "T"
        }
        attr {
          name: "N"
          type: "int"
          has_minimum: true
          minimum: 1
        }
        attr {
          name: "T"
          type: "type"
        }
        attr {
          name: "axis"
          type: "int"
          default_value {
            i: 0
          }
        }
      }
      op {
        name: "Pad"
        input_arg {
          name: "input"
          type_attr: "T"
        }
        input_arg {
          name: "paddings"
          type_attr: "Tpaddings"
        }
        output_arg {
          name: "output"
          type_attr: "T"
        }
        attr {
          name: "T"
          type: "type"
        }
        attr {
          name: "Tpaddings"
          type: "type"
          default_value {
            type: DT_INT32
          }
          allowed_values {
            list {
              type: DT_INT32
              type: DT_INT64
            }
          }
        }
      }
      op {
        name: "PaddedBatchDatasetV2"
        input_arg {
          name: "input_dataset"
          type: DT_VARIANT
        }
        input_arg {
          name: "batch_size"
          type: DT_INT64
        }
        input_arg {
          name: "padded_shapes"
          type: DT_INT64
          number_attr: "N"
        }
        input_arg {
          name: "padding_values"
          type_list_attr: "Toutput_types"
        }
        input_arg {
          name: "drop_remainder"
          type: DT_BOOL
        }
        output_arg {
          name: "handle"
          type: DT_VARIANT
        }
        attr {
          name: "parallel_copy"
          type: "bool"
          default_value {
            b: false
          }
        }
        attr {
          name: "Toutput_types"
          type: "list(type)"
          has_minimum: true
          minimum: 1
        }
        attr {
          name: "output_shapes"
          type: "list(shape)"
          has_minimum: true
          minimum: 1
        }
        attr {
          name: "N"
          type: "int"
          has_minimum: true
          minimum: 1
        }
      }
      op {
        name: "Placeholder"
        output_arg {
          name: "output"
          type_attr: "dtype"
        }
        attr {
          name: "dtype"
          type: "type"
        }
        attr {
          name: "shape"
          type: "shape"
          default_value {
            shape {
              unknown_rank: true
            }
          }
        }
      }
      op {
        name: "PlaceholderWithDefault"
        input_arg {
          name: "input"
          type_attr: "dtype"
        }
        output_arg {
          name: "output"
          type_attr: "dtype"
        }
        attr {
          name: "dtype"
          type: "type"
        }
        attr {
          name: "shape"
          type: "shape"
        }
      }
      op {
        name: "Pow"
        input_arg {
          name: "x"
          type_attr: "T"
        }
        input_arg {
          name: "y"
          type_attr: "T"
        }
        output_arg {
          name: "z"
          type_attr: "T"
        }
        attr {
          name: "T"
          type: "type"
          allowed_values {
            list {
              type: DT_BFLOAT16
              type: DT_FLOAT
              type: DT_HALF
              type: DT_DOUBLE
              type: DT_INT32
              type: DT_INT64
              type: DT_COMPLEX64
              type: DT_COMPLEX128
            }
          }
        }
      }
      op {
        name: "Prod"
        input_arg {
          name: "input"
          type_attr: "T"
        }
        input_arg {
          name: "reduction_indices"
          type_attr: "Tidx"
        }
        output_arg {
          name: "output"
          type_attr: "T"
        }
        attr {
          name: "keep_dims"
          type: "bool"
          default_value {
            b: false
          }
        }
        attr {
          name: "T"
          type: "type"
          allowed_values {
            list {
              type: DT_FLOAT
              type: DT_DOUBLE
              type: DT_INT32
              type: DT_UINT8
              type: DT_INT16
              type: DT_INT8
              type: DT_COMPLEX64
              type: DT_INT64
              type: DT_QINT8
              type: DT_QUINT8
              type: DT_QINT32
              type: DT_BFLOAT16
              type: DT_UINT16
              type: DT_COMPLEX128
              type: DT_HALF
              type: DT_UINT32
              type: DT_UINT64
            }
          }
        }
        attr {
          name: "Tidx"
          type: "type"
          default_value {
            type: DT_INT32
          }
          allowed_values {
            list {
              type: DT_INT32
              type: DT_INT64
            }
          }
        }
      }
      op {
        name: "RandomStandardNormal"
        input_arg {
          name: "shape"
          type_attr: "T"
        }
        output_arg {
          name: "output"
          type_attr: "dtype"
        }
        attr {
          name: "seed"
          type: "int"
          default_value {
            i: 0
          }
        }
        attr {
          name: "seed2"
          type: "int"
          default_value {
            i: 0
          }
        }
        attr {
          name: "dtype"
          type: "type"
          allowed_values {
            list {
              type: DT_HALF
              type: DT_BFLOAT16
              type: DT_FLOAT
              type: DT_DOUBLE
            }
          }
        }
        attr {
          name: "T"
          type: "type"
          allowed_values {
            list {
              type: DT_INT32
              type: DT_INT64
            }
          }
        }
        is_stateful: true
      }
      op {
        name: "RandomUniform"
        input_arg {
          name: "shape"
          type_attr: "T"
        }
        output_arg {
          name: "output"
          type_attr: "dtype"
        }
        attr {
          name: "seed"
          type: "int"
          default_value {
            i: 0
          }
        }
        attr {
          name: "seed2"
          type: "int"
          default_value {
            i: 0
          }
        }
        attr {
          name: "dtype"
          type: "type"
          allowed_values {
            list {
              type: DT_HALF
              type: DT_BFLOAT16
              type: DT_FLOAT
              type: DT_DOUBLE
            }
          }
        }
        attr {
          name: "T"
          type: "type"
          allowed_values {
            list {
              type: DT_INT32
              type: DT_INT64
            }
          }
        }
        is_stateful: true
      }
      op {
        name: "Range"
        input_arg {
          name: "start"
          type_attr: "Tidx"
        }
        input_arg {
          name: "limit"
          type_attr: "Tidx"
        }
        input_arg {
          name: "delta"
          type_attr: "Tidx"
        }
        output_arg {
          name: "output"
          type_attr: "Tidx"
        }
        attr {
          name: "Tidx"
          type: "type"
          default_value {
            type: DT_INT32
          }
          allowed_values {
            list {
              type: DT_BFLOAT16
              type: DT_FLOAT
              type: DT_DOUBLE
              type: DT_INT32
              type: DT_INT64
            }
          }
        }
      }
      op {
        name: "RealDiv"
        input_arg {
          name: "x"
          type_attr: "T"
        }
        input_arg {
          name: "y"
          type_attr: "T"
        }
        output_arg {
          name: "z"
          type_attr: "T"
        }
        attr {
          name: "T"
          type: "type"
          allowed_values {
            list {
              type: DT_BFLOAT16
              type: DT_HALF
              type: DT_FLOAT
              type: DT_DOUBLE
              type: DT_UINT8
              type: DT_INT8
              type: DT_UINT16
              type: DT_INT16
              type: DT_INT32
              type: DT_INT64
              type: DT_COMPLEX64
              type: DT_COMPLEX128
            }
          }
        }
      }
      op {
        name: "RefEnter"
        input_arg {
          name: "data"
          type_attr: "T"
          is_ref: true
        }
        output_arg {
          name: "output"
          type_attr: "T"
          is_ref: true
        }
        attr {
          name: "T"
          type: "type"
        }
        attr {
          name: "frame_name"
          type: "string"
        }
        attr {
          name: "is_constant"
          type: "bool"
          default_value {
            b: false
          }
        }
        attr {
          name: "parallel_iterations"
          type: "int"
          default_value {
            i: 10
          }
        }
      }
      op {
        name: "Relu"
        input_arg {
          name: "features"
          type_attr: "T"
        }
        output_arg {
          name: "activations"
          type_attr: "T"
        }
        attr {
          name: "T"
          type: "type"
          allowed_values {
            list {
              type: DT_FLOAT
              type: DT_DOUBLE
              type: DT_INT32
              type: DT_UINT8
              type: DT_INT16
              type: DT_INT8
              type: DT_INT64
              type: DT_BFLOAT16
              type: DT_UINT16
              type: DT_HALF
              type: DT_UINT32
              type: DT_UINT64
              type: DT_QINT8
            }
          }
        }
      }
      op {
        name: "Reshape"
        input_arg {
          name: "tensor"
          type_attr: "T"
        }
        input_arg {
          name: "shape"
          type_attr: "Tshape"
        }
        output_arg {
          name: "output"
          type_attr: "T"
        }
        attr {
          name: "T"
          type: "type"
        }
        attr {
          name: "Tshape"
          type: "type"
          default_value {
            type: DT_INT32
          }
          allowed_values {
            list {
              type: DT_INT32
              type: DT_INT64
            }
          }
        }
      }
      op {
        name: "RestoreV2"
        input_arg {
          name: "prefix"
          type: DT_STRING
        }
        input_arg {
          name: "tensor_names"
          type: DT_STRING
        }
        input_arg {
          name: "shape_and_slices"
          type: DT_STRING
        }
        output_arg {
          name: "tensors"
          type_list_attr: "dtypes"
        }
        attr {
          name: "dtypes"
          type: "list(type)"
          has_minimum: true
          minimum: 1
        }
        is_stateful: true
      }
      op {
        name: "Rsqrt"
        input_arg {
          name: "x"
          type_attr: "T"
        }
        output_arg {
          name: "y"
          type_attr: "T"
        }
        attr {
          name: "T"
          type: "type"
          allowed_values {
            list {
              type: DT_BFLOAT16
              type: DT_HALF
              type: DT_FLOAT
              type: DT_DOUBLE
              type: DT_COMPLEX64
              type: DT_COMPLEX128
            }
          }
        }
      }
      op {
        name: "SaveV2"
        input_arg {
          name: "prefix"
          type: DT_STRING
        }
        input_arg {
          name: "tensor_names"
          type: DT_STRING
        }
        input_arg {
          name: "shape_and_slices"
          type: DT_STRING
        }
        input_arg {
          name: "tensors"
          type_list_attr: "dtypes"
        }
        attr {
          name: "dtypes"
          type: "list(type)"
          has_minimum: true
          minimum: 1
        }
        is_stateful: true
      }
      op {
        name: "ScatterNd"
        input_arg {
          name: "indices"
          type_attr: "Tindices"
        }
        input_arg {
          name: "updates"
          type_attr: "T"
        }
        input_arg {
          name: "shape"
          type_attr: "Tindices"
        }
        output_arg {
          name: "output"
          type_attr: "T"
        }
        attr {
          name: "T"
          type: "type"
        }
        attr {
          name: "Tindices"
          type: "type"
          allowed_values {
            list {
              type: DT_INT32
              type: DT_INT64
            }
          }
        }
      }
      op {
        name: "Select"
        input_arg {
          name: "condition"
          type: DT_BOOL
        }
        input_arg {
          name: "t"
          type_attr: "T"
        }
        input_arg {
          name: "e"
          type_attr: "T"
        }
        output_arg {
          name: "output"
          type_attr: "T"
        }
        attr {
          name: "T"
          type: "type"
        }
      }
      op {
        name: "Shape"
        input_arg {
          name: "input"
          type_attr: "T"
        }
        output_arg {
          name: "output"
          type_attr: "out_type"
        }
        attr {
          name: "T"
          type: "type"
        }
        attr {
          name: "out_type"
          type: "type"
          default_value {
            type: DT_INT32
          }
          allowed_values {
            list {
              type: DT_INT32
              type: DT_INT64
            }
          }
        }
      }
      op {
        name: "ShardedFilename"
        input_arg {
          name: "basename"
          type: DT_STRING
        }
        input_arg {
          name: "shard"
          type: DT_INT32
        }
        input_arg {
          name: "num_shards"
          type: DT_INT32
        }
        output_arg {
          name: "filename"
          type: DT_STRING
        }
      }
      op {
        name: "Sin"
        input_arg {
          name: "x"
          type_attr: "T"
        }
        output_arg {
          name: "y"
          type_attr: "T"
        }
        attr {
          name: "T"
          type: "type"
          allowed_values {
            list {
              type: DT_BFLOAT16
              type: DT_HALF
              type: DT_FLOAT
              type: DT_DOUBLE
              type: DT_COMPLEX64
              type: DT_COMPLEX128
            }
          }
        }
      }
      op {
        name: "Softmax"
        input_arg {
          name: "logits"
          type_attr: "T"
        }
        output_arg {
          name: "softmax"
          type_attr: "T"
        }
        attr {
          name: "T"
          type: "type"
          allowed_values {
            list {
              type: DT_HALF
              type: DT_BFLOAT16
              type: DT_FLOAT
              type: DT_DOUBLE
            }
          }
        }
      }
      op {
        name: "Split"
        input_arg {
          name: "split_dim"
          type: DT_INT32
        }
        input_arg {
          name: "value"
          type_attr: "T"
        }
        output_arg {
          name: "output"
          type_attr: "T"
          number_attr: "num_split"
        }
        attr {
          name: "num_split"
          type: "int"
          has_minimum: true
          minimum: 1
        }
        attr {
          name: "T"
          type: "type"
        }
      }
      op {
        name: "SquaredDifference"
        input_arg {
          name: "x"
          type_attr: "T"
        }
        input_arg {
          name: "y"
          type_attr: "T"
        }
        output_arg {
          name: "z"
          type_attr: "T"
        }
        attr {
          name: "T"
          type: "type"
          allowed_values {
            list {
              type: DT_BFLOAT16
              type: DT_HALF
              type: DT_FLOAT
              type: DT_DOUBLE
              type: DT_INT32
              type: DT_INT64
              type: DT_COMPLEX64
              type: DT_COMPLEX128
            }
          }
        }
        is_commutative: true
      }
      op {
        name: "Squeeze"
        input_arg {
          name: "input"
          type_attr: "T"
        }
        output_arg {
          name: "output"
          type_attr: "T"
        }
        attr {
          name: "T"
          type: "type"
        }
        attr {
          name: "squeeze_dims"
          type: "list(int)"
          default_value {
            list {
            }
          }
          has_minimum: true
        }
      }
      op {
        name: "StopGradient"
        input_arg {
          name: "input"
          type_attr: "T"
        }
        output_arg {
          name: "output"
          type_attr: "T"
        }
        attr {
          name: "T"
          type: "type"
        }
      }
      op {
        name: "StridedSlice"
        input_arg {
          name: "input"
          type_attr: "T"
        }
        input_arg {
          name: "begin"
          type_attr: "Index"
        }
        input_arg {
          name: "end"
          type_attr: "Index"
        }
        input_arg {
          name: "strides"
          type_attr: "Index"
        }
        output_arg {
          name: "output"
          type_attr: "T"
        }
        attr {
          name: "T"
          type: "type"
        }
        attr {
          name: "Index"
          type: "type"
          allowed_values {
            list {
              type: DT_INT32
              type: DT_INT64
            }
          }
        }
        attr {
          name: "begin_mask"
          type: "int"
          default_value {
            i: 0
          }
        }
        attr {
          name: "end_mask"
          type: "int"
          default_value {
            i: 0
          }
        }
        attr {
          name: "ellipsis_mask"
          type: "int"
          default_value {
            i: 0
          }
        }
        attr {
          name: "new_axis_mask"
          type: "int"
          default_value {
            i: 0
          }
        }
        attr {
          name: "shrink_axis_mask"
          type: "int"
          default_value {
            i: 0
          }
        }
      }
      op {
        name: "StringJoin"
        input_arg {
          name: "inputs"
          type: DT_STRING
          number_attr: "N"
        }
        output_arg {
          name: "output"
          type: DT_STRING
        }
        attr {
          name: "N"
          type: "int"
          has_minimum: true
          minimum: 1
        }
        attr {
          name: "separator"
          type: "string"
          default_value {
            s: ""
          }
        }
      }
      op {
        name: "Sub"
        input_arg {
          name: "x"
          type_attr: "T"
        }
        input_arg {
          name: "y"
          type_attr: "T"
        }
        output_arg {
          name: "z"
          type_attr: "T"
        }
        attr {
          name: "T"
          type: "type"
          allowed_values {
            list {
              type: DT_BFLOAT16
              type: DT_HALF
              type: DT_FLOAT
              type: DT_DOUBLE
              type: DT_UINT8
              type: DT_INT8
              type: DT_UINT16
              type: DT_INT16
              type: DT_INT32
              type: DT_INT64
              type: DT_COMPLEX64
              type: DT_COMPLEX128
            }
          }
        }
      }
      op {
        name: "Sum"
        input_arg {
          name: "input"
          type_attr: "T"
        }
        input_arg {
          name: "reduction_indices"
          type_attr: "Tidx"
        }
        output_arg {
          name: "output"
          type_attr: "T"
        }
        attr {
          name: "keep_dims"
          type: "bool"
          default_value {
            b: false
          }
        }
        attr {
          name: "T"
          type: "type"
          allowed_values {
            list {
              type: DT_FLOAT
              type: DT_DOUBLE
              type: DT_INT32
              type: DT_UINT8
              type: DT_INT16
              type: DT_INT8
              type: DT_COMPLEX64
              type: DT_INT64
              type: DT_QINT8
              type: DT_QUINT8
              type: DT_QINT32
              type: DT_BFLOAT16
              type: DT_UINT16
              type: DT_COMPLEX128
              type: DT_HALF
              type: DT_UINT32
              type: DT_UINT64
            }
          }
        }
        attr {
          name: "Tidx"
          type: "type"
          default_value {
            type: DT_INT32
          }
          allowed_values {
            list {
              type: DT_INT32
              type: DT_INT64
            }
          }
        }
      }
      op {
        name: "Switch"
        input_arg {
          name: "data"
          type_attr: "T"
        }
        input_arg {
          name: "pred"
          type: DT_BOOL
        }
        output_arg {
          name: "output_false"
          type_attr: "T"
        }
        output_arg {
          name: "output_true"
          type_attr: "T"
        }
        attr {
          name: "T"
          type: "type"
        }
      }
      op {
        name: "TensorSliceDataset"
        input_arg {
          name: "components"
          type_list_attr: "Toutput_types"
        }
        output_arg {
          name: "handle"
          type: DT_VARIANT
        }
        attr {
          name: "Toutput_types"
          type: "list(type)"
          has_minimum: true
          minimum: 1
        }
        attr {
          name: "output_shapes"
          type: "list(shape)"
          has_minimum: true
          minimum: 1
        }
        is_stateful: true
      }
      op {
        name: "TensorSummaryV2"
        input_arg {
          name: "tag"
          type: DT_STRING
        }
        input_arg {
          name: "tensor"
          type_attr: "T"
        }
        input_arg {
          name: "serialized_summary_metadata"
          type: DT_STRING
        }
        output_arg {
          name: "summary"
          type: DT_STRING
        }
        attr {
          name: "T"
          type: "type"
        }
      }
      op {
        name: "Tile"
        input_arg {
          name: "input"
          type_attr: "T"
        }
        input_arg {
          name: "multiples"
          type_attr: "Tmultiples"
        }
        output_arg {
          name: "output"
          type_attr: "T"
        }
        attr {
          name: "T"
          type: "type"
        }
        attr {
          name: "Tmultiples"
          type: "type"
          default_value {
            type: DT_INT32
          }
          allowed_values {
            list {
              type: DT_INT32
              type: DT_INT64
            }
          }
        }
      }
      op {
        name: "TopKV2"
        input_arg {
          name: "input"
          type_attr: "T"
        }
        input_arg {
          name: "k"
          type: DT_INT32
        }
        output_arg {
          name: "values"
          type_attr: "T"
        }
        output_arg {
          name: "indices"
          type: DT_INT32
        }
        attr {
          name: "sorted"
          type: "bool"
          default_value {
            b: true
          }
        }
        attr {
          name: "T"
          type: "type"
          allowed_values {
            list {
              type: DT_FLOAT
              type: DT_DOUBLE
              type: DT_INT32
              type: DT_UINT8
              type: DT_INT16
              type: DT_INT8
              type: DT_INT64
              type: DT_BFLOAT16
              type: DT_UINT16
              type: DT_HALF
              type: DT_UINT32
              type: DT_UINT64
            }
          }
        }
      }
      op {
        name: "Transpose"
        input_arg {
          name: "x"
          type_attr: "T"
        }
        input_arg {
          name: "perm"
          type_attr: "Tperm"
        }
        output_arg {
          name: "y"
          type_attr: "T"
        }
        attr {
          name: "T"
          type: "type"
        }
        attr {
          name: "Tperm"
          type: "type"
          default_value {
            type: DT_INT32
          }
          allowed_values {
            list {
              type: DT_INT32
              type: DT_INT64
            }
          }
        }
      }
      op {
        name: "VariableV2"
        output_arg {
          name: "ref"
          type_attr: "dtype"
          is_ref: true
        }
        attr {
          name: "shape"
          type: "shape"
        }
        attr {
          name: "dtype"
          type: "type"
        }
        attr {
          name: "container"
          type: "string"
          default_value {
            s: ""
          }
        }
        attr {
          name: "shared_name"
          type: "string"
          default_value {
            s: ""
          }
        }
        is_stateful: true
      }
      op {
        name: "Where"
        input_arg {
          name: "input"
          type_attr: "T"
        }
        output_arg {
          name: "index"
          type: DT_INT64
        }
        attr {
          name: "T"
          type: "type"
          default_value {
            type: DT_BOOL
          }
          allowed_values {
            list {
              type: DT_FLOAT
              type: DT_DOUBLE
              type: DT_INT32
              type: DT_UINT8
              type: DT_INT16
              type: DT_INT8
              type: DT_COMPLEX64
              type: DT_INT64
              type: DT_QINT8
              type: DT_QUINT8
              type: DT_QINT32
              type: DT_BFLOAT16
              type: DT_UINT16
              type: DT_COMPLEX128
              type: DT_HALF
              type: DT_UINT32
              type: DT_UINT64
              type: DT_BOOL
            }
          }
        }
      }
      op {
        name: "ZerosLike"
        input_arg {
          name: "x"
          type_attr: "T"
        }
        output_arg {
          name: "y"
          type_attr: "T"
        }
        attr {
          name: "T"
          type: "type"
        }
      }
    }
    tags: "serve"
    tensorflow_version: "1.14.0"
    tensorflow_git_version: "unknown"
    stripped_default_attrs: true
  }
  graph_def {
    node {
      name: "global_step/Initializer/zeros"
      op: "Const"
      attr {
        key: "_class"
        value {
          list {
            s: "loc:@global_step"
          }
        }
      }
      attr {
        key: "_output_shapes"
        value {
          list {
            shape {
            }
          }
        }
      }
      attr {
        key: "dtype"
        value {
          type: DT_INT64
        }
      }
      attr {
        key: "value"
        value {
          tensor {
            dtype: DT_INT64
            tensor_shape {
            }
            int64_val: 0
          }
        }
      }
    }
    node {
      name: "global_step"
      op: "VariableV2"
      attr {
        key: "_class"
        value {
          list {
            s: "loc:@global_step"
          }
        }
      }
      attr {
        key: "_output_shapes"
        value {
          list {
            shape {
            }
          }
        }
      }
      attr {
        key: "dtype"
        value {
          type: DT_INT64
        }
      }
      attr {
        key: "shape"
        value {
          shape {
          }
        }
      }
    }
    node {
      name: "global_step/Assign"
      op: "Assign"
      input: "global_step"
      input: "global_step/Initializer/zeros"
      attr {
        key: "T"
        value {
          type: DT_INT64
        }
      }
      attr {
        key: "_class"
        value {
          list {
            s: "loc:@global_step"
          }
        }
      }
      attr {
        key: "_output_shapes"
        value {
          list {
            shape {
            }
          }
        }
      }
    }
    node {
      name: "global_step/read"
      op: "Identity"
      input: "global_step"
      attr {
        key: "T"
        value {
          type: DT_INT64
        }
      }
      attr {
        key: "_class"
        value {
          list {
            s: "loc:@global_step"
          }
        }
      }
      attr {
        key: "_output_shapes"
        value {
          list {
            shape {
            }
          }
        }
      }
    }
    node {
      name: "serialized_example"
      op: "Placeholder"
      attr {
        key: "_output_shapes"
        value {
          list {
            shape {
              dim {
                size: -1
              }
            }
          }
        }
      }
      attr {
        key: "dtype"
        value {
          type: DT_STRING
        }
      }
      attr {
        key: "shape"
        value {
          shape {
            dim {
              size: -1
            }
          }
        }
      }
    }
    node {
      name: "TensorSliceDataset"
      op: "TensorSliceDataset"
      input: "serialized_example"
      attr {
        key: "Toutput_types"
        value {
          list {
            type: DT_STRING
          }
        }
      }
      attr {
        key: "_output_shapes"
        value {
          list {
            shape {
            }
          }
        }
      }
      attr {
        key: "output_shapes"
        value {
          list {
            shape {
            }
          }
        }
      }
    }
    node {
      name: "MapDataset"
      op: "MapDataset"
      input: "TensorSliceDataset"
      attr {
        key: "Targuments"
        value {
          list {
          }
        }
      }
      attr {
        key: "_output_shapes"
        value {
          list {
            shape {
            }
          }
        }
      }
      attr {
        key: "f"
        value {
          func {
            name: "__inference_Dataset_map_TranslateUp2down.decode_example_29"
          }
        }
      }
      attr {
        key: "output_shapes"
        value {
          list {
            shape {
              dim {
                size: 1
              }
            }
            shape {
              dim {
                size: -1
              }
            }
            shape {
              dim {
                size: -1
              }
            }
          }
        }
      }
      attr {
        key: "output_types"
        value {
          list {
            type: DT_INT64
            type: DT_INT64
            type: DT_INT64
          }
        }
      }
    }
    node {
      name: "MapDataset_1"
      op: "MapDataset"
      input: "MapDataset"
      attr {
        key: "Targuments"
        value {
          list {
          }
        }
      }
      attr {
        key: "_output_shapes"
        value {
          list {
            shape {
            }
          }
        }
      }
      attr {
        key: "f"
        value {
          func {
            name: "__inference_Dataset_map_<lambda>_38"
          }
        }
      }
      attr {
        key: "output_shapes"
        value {
          list {
            shape {
              dim {
                size: 1
              }
            }
            shape {
              dim {
                size: -1
              }
            }
            shape {
              dim {
                size: -1
              }
            }
          }
        }
      }
      attr {
        key: "output_types"
        value {
          list {
            type: DT_INT64
            type: DT_INT64
            type: DT_INT64
          }
        }
      }
    }
    node {
      name: "MapDataset_2"
      op: "MapDataset"
      input: "MapDataset_1"
      attr {
        key: "Targuments"
        value {
          list {
          }
        }
      }
      attr {
        key: "_output_shapes"
        value {
          list {
            shape {
            }
          }
        }
      }
      attr {
        key: "f"
        value {
          func {
            name: "__inference_Dataset_map_cast_ints_to_int32_50"
          }
        }
      }
      attr {
        key: "output_shapes"
        value {
          list {
            shape {
              dim {
                size: 1
              }
            }
            shape {
              dim {
                size: -1
              }
            }
            shape {
              dim {
                size: -1
              }
            }
          }
        }
      }
      attr {
        key: "output_types"
        value {
          list {
            type: DT_INT32
            type: DT_INT32
            type: DT_INT32
          }
        }
      }
    }
    node {
      name: "Shape"
      op: "Shape"
      input: "serialized_example"
      attr {
        key: "T"
        value {
          type: DT_STRING
        }
      }
      attr {
        key: "_output_shapes"
        value {
          list {
            shape {
              dim {
                size: 1
              }
            }
          }
        }
      }
      attr {
        key: "out_type"
        value {
          type: DT_INT64
        }
      }
    }
    node {
      name: "strided_slice/stack"
      op: "Const"
      attr {
        key: "_output_shapes"
        value {
          list {
            shape {
              dim {
                size: 1
              }
            }
          }
        }
      }
      attr {
        key: "dtype"
        value {
          type: DT_INT32
        }
      }
      attr {
        key: "value"
        value {
          tensor {
            dtype: DT_INT32
            tensor_shape {
              dim {
                size: 1
              }
            }
            int_val: 0
          }
        }
      }
    }
    node {
      name: "strided_slice/stack_1"
      op: "Const"
      attr {
        key: "_output_shapes"
        value {
          list {
            shape {
              dim {
                size: 1
              }
            }
          }
        }
      }
      attr {
        key: "dtype"
        value {
          type: DT_INT32
        }
      }
      attr {
        key: "value"
        value {
          tensor {
            dtype: DT_INT32
            tensor_shape {
              dim {
                size: 1
              }
            }
            int_val: 1
          }
        }
      }
    }
    node {
      name: "strided_slice/stack_2"
      op: "Const"
      attr {
        key: "_output_shapes"
        value {
          list {
            shape {
              dim {
                size: 1
              }
            }
          }
        }
      }
      attr {
        key: "dtype"
        value {
          type: DT_INT32
        }
      }
      attr {
        key: "value"
        value {
          tensor {
            dtype: DT_INT32
            tensor_shape {
              dim {
                size: 1
              }
            }
            int_val: 1
          }
        }
      }
    }
    node {
      name: "strided_slice"
      op: "StridedSlice"
      input: "Shape"
      input: "strided_slice/stack"
      input: "strided_slice/stack_1"
      input: "strided_slice/stack_2"
      attr {
        key: "Index"
        value {
          type: DT_INT32
        }
      }
      attr {
        key: "T"
        value {
          type: DT_INT64
        }
      }
      attr {
        key: "_output_shapes"
        value {
          list {
            shape {
            }
          }
        }
      }
      attr {
        key: "shrink_axis_mask"
        value {
          i: 1
        }
      }
    }
    node {
      name: "Const"
      op: "Const"
      attr {
        key: "_output_shapes"
        value {
          list {
            shape {
              dim {
                size: 1
              }
            }
          }
        }
      }
      attr {
        key: "dtype"
        value {
          type: DT_INT64
        }
      }
      attr {
        key: "value"
        value {
          tensor {
            dtype: DT_INT64
            tensor_shape {
              dim {
                size: 1
              }
            }
            int64_val: 1
          }
        }
      }
    }
    node {
      name: "Const_1"
      op: "Const"
      attr {
        key: "_output_shapes"
        value {
          list {
            shape {
              dim {
                size: 1
              }
            }
          }
        }
      }
      attr {
        key: "dtype"
        value {
          type: DT_INT64
        }
      }
      attr {
        key: "value"
        value {
          tensor {
            dtype: DT_INT64
            tensor_shape {
              dim {
                size: 1
              }
            }
            int64_val: -1
          }
        }
      }
    }
    node {
      name: "Const_2"
      op: "Const"
      attr {
        key: "_output_shapes"
        value {
          list {
            shape {
              dim {
                size: 1
              }
            }
          }
        }
      }
      attr {
        key: "dtype"
        value {
          type: DT_INT64
        }
      }
      attr {
        key: "value"
        value {
          tensor {
            dtype: DT_INT64
            tensor_shape {
              dim {
                size: 1
              }
            }
            int64_val: -1
          }
        }
      }
    }
    node {
      name: "padding_value"
      op: "Const"
      attr {
        key: "_output_shapes"
        value {
          list {
            shape {
            }
          }
        }
      }
      attr {
        key: "dtype"
        value {
          type: DT_INT32
        }
      }
      attr {
        key: "value"
        value {
          tensor {
            dtype: DT_INT32
            tensor_shape {
            }
            int_val: 0
          }
        }
      }
    }
    node {
      name: "padding_value_1"
      op: "Const"
      attr {
        key: "_output_shapes"
        value {
          list {
            shape {
            }
          }
        }
      }
      attr {
        key: "dtype"
        value {
          type: DT_INT32
        }
      }
      attr {
        key: "value"
        value {
          tensor {
            dtype: DT_INT32
            tensor_shape {
            }
            int_val: 0
          }
        }
      }
    }
    node {
      name: "padding_value_2"
      op: "Const"
      attr {
        key: "_output_shapes"
        value {
          list {
            shape {
            }
          }
        }
      }
      attr {
        key: "dtype"
        value {
          type: DT_INT32
        }
      }
      attr {
        key: "value"
        value {
          tensor {
            dtype: DT_INT32
            tensor_shape {
            }
            int_val: 0
          }
        }
      }
    }
    node {
      name: "drop_remainder"
      op: "Const"
      attr {
        key: "_output_shapes"
        value {
          list {
            shape {
            }
          }
        }
      }
      attr {
        key: "dtype"
        value {
          type: DT_BOOL
        }
      }
      attr {
        key: "value"
        value {
          tensor {
            dtype: DT_BOOL
            tensor_shape {
            }
            bool_val: false
          }
        }
      }
    }
    node {
      name: "PaddedBatchDatasetV2"
      op: "PaddedBatchDatasetV2"
      input: "MapDataset_2"
      input: "strided_slice"
      input: "Const"
      input: "Const_1"
      input: "Const_2"
      input: "padding_value"
      input: "padding_value_1"
      input: "padding_value_2"
      input: "drop_remainder"
      attr {
        key: "N"
        value {
          i: 3
        }
      }
      attr {
        key: "Toutput_types"
        value {
          list {
            type: DT_INT32
            type: DT_INT32
            type: DT_INT32
          }
        }
      }
      attr {
        key: "_output_shapes"
        value {
          list {
            shape {
            }
          }
        }
      }
      attr {
        key: "output_shapes"
        value {
          list {
            shape {
              dim {
                size: -1
              }
              dim {
                size: 1
              }
            }
            shape {
              dim {
                size: -1
              }
              dim {
                size: -1
              }
            }
            shape {
              dim {
                size: -1
              }
              dim {
                size: -1
              }
            }
          }
        }
      }
    }
    node {
      name: "MapDataset_3"
      op: "MapDataset"
      input: "PaddedBatchDatasetV2"
      attr {
        key: "Targuments"
        value {
          list {
          }
        }
      }
      attr {
        key: "_output_shapes"
        value {
          list {
            shape {
            }
          }
        }
      }
      attr {
        key: "f"
        value {
          func {
            name: "__inference_Dataset_map_standardize_shapes_80"
          }
        }
      }
      attr {
        key: "output_shapes"
        value {
          list {
            shape {
              dim {
                size: -1
              }
              dim {
                size: 1
              }
            }
            shape {
              dim {
                size: -1
              }
              dim {
                size: -1
              }
              dim {
                size: 1
              }
              dim {
                size: 1
              }
            }
            shape {
              dim {
                size: -1
              }
              dim {
                size: -1
              }
              dim {
                size: 1
              }
              dim {
                size: 1
              }
            }
          }
        }
      }
      attr {
        key: "output_types"
        value {
          list {
            type: DT_INT32
            type: DT_INT32
            type: DT_INT32
          }
        }
      }
    }
    node {
      name: "DatasetToSingleElement"
      op: "DatasetToSingleElement"
      input: "MapDataset_3"
      attr {
        key: "_output_shapes"
        value {
          list {
            shape {
              dim {
                size: -1
              }
              dim {
                size: 1
              }
            }
            shape {
              dim {
                size: -1
              }
              dim {
                size: -1
              }
              dim {
                size: 1
              }
              dim {
                size: 1
              }
            }
            shape {
              dim {
                size: -1
              }
              dim {
                size: -1
              }
              dim {
                size: 1
              }
              dim {
                size: 1
              }
            }
          }
        }
      }
      attr {
        key: "output_shapes"
        value {
          list {
            shape {
              dim {
                size: -1
              }
              dim {
                size: 1
              }
            }
            shape {
              dim {
                size: -1
              }
              dim {
                size: -1
              }
              dim {
                size: 1
              }
              dim {
                size: 1
              }
            }
            shape {
              dim {
                size: -1
              }
              dim {
                size: -1
              }
              dim {
                size: 1
              }
              dim {
                size: 1
              }
            }
          }
        }
      }
      attr {
        key: "output_types"
        value {
          list {
            type: DT_INT32
            type: DT_INT32
            type: DT_INT32
          }
        }
      }
    }
    node {
      name: "Const_3"
      op: "Const"
      attr {
        key: "_output_shapes"
        value {
          list {
            shape {
              dim {
                size: 2
              }
            }
          }
        }
      }
      attr {
        key: "dtype"
        value {
          type: DT_STRING
        }
      }
      attr {
        key: "value"
        value {
          tensor {
            dtype: DT_STRING
            tensor_shape {
              dim {
                size: 2
              }
            }
            string_val: "batch_size"
            string_val: "128"
          }
        }
      }
    }
    node {
      name: "Const_4"
      op: "Const"
      attr {
        key: "_output_shapes"
        value {
          list {
            shape {
              dim {
                size: 2
              }
            }
          }
        }
      }
      attr {
        key: "dtype"
        value {
          type: DT_STRING
        }
      }
      attr {
        key: "value"
        value {
          tensor {
            dtype: DT_STRING
            tensor_shape {
              dim {
                size: 2
              }
            }
            string_val: "batch_shuffle_size"
            string_val: "512"
          }
        }
      }
    }
    node {
      name: "Const_5"
      op: "Const"
      attr {
        key: "_output_shapes"
        value {
          list {
            shape {
              dim {
                size: 2
              }
            }
          }
        }
      }
      attr {
        key: "dtype"
        value {
          type: DT_STRING
        }
      }
      attr {
        key: "value"
        value {
          tensor {
            dtype: DT_STRING
            tensor_shape {
              dim {
                size: 2
              }
            }
            string_val: "use_fixed_batch_size"
            string_val: "False"
          }
        }
      }
    }
    node {
      name: "Const_6"
      op: "Const"
      attr {
        key: "_output_shapes"
        value {
          list {
            shape {
              dim {
                size: 2
              }
            }
          }
        }
      }
      attr {
        key: "dtype"
        value {
          type: DT_STRING
        }
      }
      attr {
        key: "value"
        value {
          tensor {
            dtype: DT_STRING
            tensor_shape {
              dim {
                size: 2
              }
            }
            string_val: "num_hidden_layers"
            string_val: "2"
          }
        }
      }
    }
    node {
      name: "Const_7"
      op: "Const"
      attr {
        key: "_output_shapes"
        value {
          list {
            shape {
              dim {
                size: 2
              }
            }
          }
        }
      }
      attr {
        key: "dtype"
        value {
          type: DT_STRING
        }
      }
      attr {
        key: "value"
        value {
          tensor {
            dtype: DT_STRING
            tensor_shape {
              dim {
                size: 2
              }
            }
            string_val: "kernel_height"
            string_val: "3"
          }
        }
      }
    }
    node {
      name: "Const_8"
      op: "Const"
      attr {
        key: "_output_shapes"
        value {
          list {
            shape {
              dim {
                size: 2
              }
            }
          }
        }
      }
      attr {
        key: "dtype"
        value {
          type: DT_STRING
        }
      }
      attr {
        key: "value"
        value {
          tensor {
            dtype: DT_STRING
            tensor_shape {
              dim {
                size: 2
              }
            }
            string_val: "kernel_width"
            string_val: "1"
          }
        }
      }
    }
    node {
      name: "Const_9"
      op: "Const"
      attr {
        key: "_output_shapes"
        value {
          list {
            shape {
              dim {
                size: 2
              }
            }
          }
        }
      }
      attr {
        key: "dtype"
        value {
          type: DT_STRING
        }
      }
      attr {
        key: "value"
        value {
          tensor {
            dtype: DT_STRING
            tensor_shape {
              dim {
                size: 2
              }
            }
            string_val: "hidden_size"
            string_val: "256"
          }
        }
      }
    }
    node {
      name: "Const_10"
      op: "Const"
      attr {
        key: "_output_shapes"
        value {
          list {
            shape {
              dim {
                size: 2
              }
            }
          }
        }
      }
      attr {
        key: "dtype"
        value {
          type: DT_STRING
        }
      }
      attr {
        key: "value"
        value {
          tensor {
            dtype: DT_STRING
            tensor_shape {
              dim {
                size: 2
              }
            }
            string_val: "compress_steps"
            string_val: "0"
          }
        }
      }
    }
    node {
      name: "Const_11"
      op: "Const"
      attr {
        key: "_output_shapes"
        value {
          list {
            shape {
              dim {
                size: 2
              }
            }
          }
        }
      }
      attr {
        key: "dtype"
        value {
          type: DT_STRING
        }
      }
      attr {
        key: "value"
        value {
          tensor {
            dtype: DT_STRING
            tensor_shape {
              dim {
                size: 2
              }
            }
            string_val: "dropout"
            string_val: "0.0"
          }
        }
      }
    }
    node {
      name: "Const_12"
      op: "Const"
      attr {
        key: "_output_shapes"
        value {
          list {
            shape {
              dim {
                size: 2
              }
            }
          }
        }
      }
      attr {
        key: "dtype"
        value {
          type: DT_STRING
        }
      }
      attr {
        key: "value"
        value {
          tensor {
            dtype: DT_STRING
            tensor_shape {
              dim {
                size: 2
              }
            }
            string_val: "clip_grad_norm"
            string_val: "0.0"
          }
        }
      }
    }
    node {
      name: "Const_13"
      op: "Const"
      attr {
        key: "_output_shapes"
        value {
          list {
            shape {
              dim {
                size: 2
              }
            }
          }
        }
      }
      attr {
        key: "dtype"
        value {
          type: DT_STRING
        }
      }
      attr {
        key: "value"
        value {
          tensor {
            dtype: DT_STRING
            tensor_shape {
              dim {
                size: 2
              }
            }
            string_val: "grad_noise_scale"
            string_val: "0.0"
          }
        }
      }
    }
    node {
      name: "Const_14"
      op: "Const"
      attr {
        key: "_output_shapes"
        value {
          list {
            shape {
              dim {
                size: 2
              }
            }
          }
        }
      }
      attr {
        key: "dtype"
        value {
          type: DT_STRING
        }
      }
      attr {
        key: "value"
        value {
          tensor {
            dtype: DT_STRING
            tensor_shape {
              dim {
                size: 2
              }
            }
            string_val: "summarize_grads"
            string_val: "False"
          }
        }
      }
    }
    node {
      name: "Const_15"
      op: "Const"
      attr {
        key: "_output_shapes"
        value {
          list {
            shape {
              dim {
                size: 2
              }
            }
          }
        }
      }
      attr {
        key: "dtype"
        value {
          type: DT_STRING
        }
      }
      attr {
        key: "value"
        value {
          tensor {
            dtype: DT_STRING
            tensor_shape {
              dim {
                size: 2
              }
            }
            string_val: "mlperf_mode"
            string_val: "False"
          }
        }
      }
    }
    node {
      name: "Const_16"
      op: "Const"
      attr {
        key: "_output_shapes"
        value {
          list {
            shape {
              dim {
                size: 2
              }
            }
          }
        }
      }
      attr {
        key: "dtype"
        value {
          type: DT_STRING
        }
      }
      attr {
        key: "value"
        value {
          tensor {
            dtype: DT_STRING
            tensor_shape {
              dim {
                size: 2
              }
            }
            string_val: "summarize_vars"
            string_val: "False"
          }
        }
      }
    }
    node {
      name: "Const_17"
      op: "Const"
      attr {
        key: "_output_shapes"
        value {
          list {
            shape {
              dim {
                size: 2
              }
            }
          }
        }
      }
      attr {
        key: "dtype"
        value {
          type: DT_STRING
        }
      }
      attr {
        key: "value"
        value {
          tensor {
            dtype: DT_STRING
            tensor_shape {
              dim {
                size: 2
              }
            }
            string_val: "initializer"
            string_val: "uniform_unit_scaling"
          }
        }
      }
    }
    node {
      name: "Const_18"
      op: "Const"
      attr {
        key: "_output_shapes"
        value {
          list {
            shape {
              dim {
                size: 2
              }
            }
          }
        }
      }
      attr {
        key: "dtype"
        value {
          type: DT_STRING
        }
      }
      attr {
        key: "value"
        value {
          tensor {
            dtype: DT_STRING
            tensor_shape {
              dim {
                size: 2
              }
            }
            string_val: "initializer_gain"
            string_val: "1.0"
          }
        }
      }
    }
    node {
      name: "Const_19"
      op: "Const"
      attr {
        key: "_output_shapes"
        value {
          list {
            shape {
              dim {
                size: 2
              }
            }
          }
        }
      }
      attr {
        key: "dtype"
        value {
          type: DT_STRING
        }
      }
      attr {
        key: "value"
        value {
          tensor {
            dtype: DT_STRING
            tensor_shape {
              dim {
                size: 2
              }
            }
            string_val: "label_smoothing"
            string_val: "0.0"
          }
        }
      }
    }
    node {
      name: "Const_20"
      op: "Const"
      attr {
        key: "_output_shapes"
        value {
          list {
            shape {
              dim {
                size: 2
              }
            }
          }
        }
      }
      attr {
        key: "dtype"
        value {
          type: DT_STRING
        }
      }
      attr {
        key: "value"
        value {
          tensor {
            dtype: DT_STRING
            tensor_shape {
              dim {
                size: 2
              }
            }
            string_val: "optimizer"
            string_val: "adam"
          }
        }
      }
    }
    node {
      name: "Const_21"
      op: "Const"
      attr {
        key: "_output_shapes"
        value {
          list {
            shape {
              dim {
                size: 2
              }
            }
          }
        }
      }
      attr {
        key: "dtype"
        value {
          type: DT_STRING
        }
      }
      attr {
        key: "value"
        value {
          tensor {
            dtype: DT_STRING
            tensor_shape {
              dim {
                size: 2
              }
            }
            string_val: "optimizer_adam_epsilon"
            string_val: "1e-09"
          }
        }
      }
    }
    node {
      name: "Const_22"
      op: "Const"
      attr {
        key: "_output_shapes"
        value {
          list {
            shape {
              dim {
                size: 2
              }
            }
          }
        }
      }
      attr {
        key: "dtype"
        value {
          type: DT_STRING
        }
      }
      attr {
        key: "value"
        value {
          tensor {
            dtype: DT_STRING
            tensor_shape {
              dim {
                size: 2
              }
            }
            string_val: "optimizer_adam_beta1"
            string_val: "0.9"
          }
        }
      }
    }
    node {
      name: "Const_23"
      op: "Const"
      attr {
        key: "_output_shapes"
        value {
          list {
            shape {
              dim {
                size: 2
              }
            }
          }
        }
      }
      attr {
        key: "dtype"
        value {
          type: DT_STRING
        }
      }
      attr {
        key: "value"
        value {
          tensor {
            dtype: DT_STRING
            tensor_shape {
              dim {
                size: 2
              }
            }
            string_val: "optimizer_adam_beta2"
            string_val: "0.997"
          }
        }
      }
    }
    node {
      name: "Const_24"
      op: "Const"
      attr {
        key: "_output_shapes"
        value {
          list {
            shape {
              dim {
                size: 2
              }
            }
          }
        }
      }
      attr {
        key: "dtype"
        value {
          type: DT_STRING
        }
      }
      attr {
        key: "value"
        value {
          tensor {
            dtype: DT_STRING
            tensor_shape {
              dim {
                size: 2
              }
            }
            string_val: "optimizer_momentum_momentum"
            string_val: "0.9"
          }
        }
      }
    }
    node {
      name: "Const_25"
      op: "Const"
      attr {
        key: "_output_shapes"
        value {
          list {
            shape {
              dim {
                size: 2
              }
            }
          }
        }
      }
      attr {
        key: "dtype"
        value {
          type: DT_STRING
        }
      }
      attr {
        key: "value"
        value {
          tensor {
            dtype: DT_STRING
            tensor_shape {
              dim {
                size: 2
              }
            }
            string_val: "optimizer_momentum_nesterov"
            string_val: "False"
          }
        }
      }
    }
    node {
      name: "Const_26"
      op: "Const"
      attr {
        key: "_output_shapes"
        value {
          list {
            shape {
              dim {
                size: 2
              }
            }
          }
        }
      }
      attr {
        key: "dtype"
        value {
          type: DT_STRING
        }
      }
      attr {
        key: "value"
        value {
          tensor {
            dtype: DT_STRING
            tensor_shape {
              dim {
                size: 2
              }
            }
            string_val: "optimizer_adafactor_beta1"
            string_val: "0.0"
          }
        }
      }
    }
    node {
      name: "Const_27"
      op: "Const"
      attr {
        key: "_output_shapes"
        value {
          list {
            shape {
              dim {
                size: 2
              }
            }
          }
        }
      }
      attr {
        key: "dtype"
        value {
          type: DT_STRING
        }
      }
      attr {
        key: "value"
        value {
          tensor {
            dtype: DT_STRING
            tensor_shape {
              dim {
                size: 2
              }
            }
            string_val: "optimizer_adafactor_beta2"
            string_val: "0.999"
          }
        }
      }
    }
    node {
      name: "Const_28"
      op: "Const"
      attr {
        key: "_output_shapes"
        value {
          list {
            shape {
              dim {
                size: 2
              }
            }
          }
        }
      }
      attr {
        key: "dtype"
        value {
          type: DT_STRING
        }
      }
      attr {
        key: "value"
        value {
          tensor {
            dtype: DT_STRING
            tensor_shape {
              dim {
                size: 2
              }
            }
            string_val: "optimizer_adafactor_factored"
            string_val: "True"
          }
        }
      }
    }
    node {
      name: "Const_29"
      op: "Const"
      attr {
        key: "_output_shapes"
        value {
          list {
            shape {
              dim {
                size: 2
              }
            }
          }
        }
      }
      attr {
        key: "dtype"
        value {
          type: DT_STRING
        }
      }
      attr {
        key: "value"
        value {
          tensor {
            dtype: DT_STRING
            tensor_shape {
              dim {
                size: 2
              }
            }
            string_val: "optimizer_adafactor_decay_type"
            string_val: "pow"
          }
        }
      }
    }
    node {
      name: "Const_30"
      op: "Const"
      attr {
        key: "_output_shapes"
        value {
          list {
            shape {
              dim {
                size: 2
              }
            }
          }
        }
      }
      attr {
        key: "dtype"
        value {
          type: DT_STRING
        }
      }
      attr {
        key: "value"
        value {
          tensor {
            dtype: DT_STRING
            tensor_shape {
              dim {
                size: 2
              }
            }
            string_val: "optimizer_adafactor_memory_exponent"
            string_val: "0.8"
          }
        }
      }
    }
    node {
      name: "Const_31"
      op: "Const"
      attr {
        key: "_output_shapes"
        value {
          list {
            shape {
              dim {
                size: 2
              }
            }
          }
        }
      }
      attr {
        key: "dtype"
        value {
          type: DT_STRING
        }
      }
      attr {
        key: "value"
        value {
          tensor {
            dtype: DT_STRING
            tensor_shape {
              dim {
                size: 2
              }
            }
            string_val: "optimizer_adafactor_clipping_threshold"
            string_val: "1.0"
          }
        }
      }
    }
    node {
      name: "Const_32"
      op: "Const"
      attr {
        key: "_output_shapes"
        value {
          list {
            shape {
              dim {
                size: 2
              }
            }
          }
        }
      }
      attr {
        key: "dtype"
        value {
          type: DT_STRING
        }
      }
      attr {
        key: "value"
        value {
          tensor {
            dtype: DT_STRING
            tensor_shape {
              dim {
                size: 2
              }
            }
            string_val: "optimizer_adafactor_multiply_by_parameter_scale"
            string_val: "True"
          }
        }
      }
    }
    node {
      name: "Const_33"
      op: "Const"
      attr {
        key: "_output_shapes"
        value {
          list {
            shape {
              dim {
                size: 2
              }
            }
          }
        }
      }
      attr {
        key: "dtype"
        value {
          type: DT_STRING
        }
      }
      attr {
        key: "value"
        value {
          tensor {
            dtype: DT_STRING
            tensor_shape {
              dim {
                size: 2
              }
            }
            string_val: "optimizer_multistep_accumulate_steps"
            string_val: "0"
          }
        }
      }
    }
    node {
      name: "Const_34"
      op: "Const"
      attr {
        key: "_output_shapes"
        value {
          list {
            shape {
              dim {
                size: 2
              }
            }
          }
        }
      }
      attr {
        key: "dtype"
        value {
          type: DT_STRING
        }
      }
      attr {
        key: "value"
        value {
          tensor {
            dtype: DT_STRING
            tensor_shape {
              dim {
                size: 2
              }
            }
            string_val: "mixed_precision_optimizer_loss_scaler"
            string_val: "exponential"
          }
        }
      }
    }
    node {
      name: "Const_35"
      op: "Const"
      attr {
        key: "_output_shapes"
        value {
          list {
            shape {
              dim {
                size: 2
              }
            }
          }
        }
      }
      attr {
        key: "dtype"
        value {
          type: DT_STRING
        }
      }
      attr {
        key: "value"
        value {
          tensor {
            dtype: DT_STRING
            tensor_shape {
              dim {
                size: 2
              }
            }
            string_val: "mixed_precision_optimizer_init_loss_scale"
            string_val: "32768"
          }
        }
      }
    }
    node {
      name: "Const_36"
      op: "Const"
      attr {
        key: "_output_shapes"
        value {
          list {
            shape {
              dim {
                size: 2
              }
            }
          }
        }
      }
      attr {
        key: "dtype"
        value {
          type: DT_STRING
        }
      }
      attr {
        key: "value"
        value {
          tensor {
            dtype: DT_STRING
            tensor_shape {
              dim {
                size: 2
              }
            }
            string_val: "optimizer_zero_grads"
            string_val: "False"
          }
        }
      }
    }
    node {
      name: "Const_37"
      op: "Const"
      attr {
        key: "_output_shapes"
        value {
          list {
            shape {
              dim {
                size: 2
              }
            }
          }
        }
      }
      attr {
        key: "dtype"
        value {
          type: DT_STRING
        }
      }
      attr {
        key: "value"
        value {
          tensor {
            dtype: DT_STRING
            tensor_shape {
              dim {
                size: 2
              }
            }
            string_val: "weight_decay"
            string_val: "0.0"
          }
        }
      }
    }
    node {
      name: "Const_38"
      op: "Const"
      attr {
        key: "_output_shapes"
        value {
          list {
            shape {
              dim {
                size: 2
              }
            }
          }
        }
      }
      attr {
        key: "dtype"
        value {
          type: DT_STRING
        }
      }
      attr {
        key: "value"
        value {
          tensor {
            dtype: DT_STRING
            tensor_shape {
              dim {
                size: 2
              }
            }
            string_val: "weight_noise"
            string_val: "0.0"
          }
        }
      }
    }
    node {
      name: "Const_39"
      op: "Const"
      attr {
        key: "_output_shapes"
        value {
          list {
            shape {
              dim {
                size: 2
              }
            }
          }
        }
      }
      attr {
        key: "dtype"
        value {
          type: DT_STRING
        }
      }
      attr {
        key: "value"
        value {
          tensor {
            dtype: DT_STRING
            tensor_shape {
              dim {
                size: 2
              }
            }
            string_val: "learning_rate_schedule"
            string_val: "constant*linear_warmup*rsqrt_decay*rsqrt_hidden_size"
          }
        }
      }
    }
    node {
      name: "Const_40"
      op: "Const"
      attr {
        key: "_output_shapes"
        value {
          list {
            shape {
              dim {
                size: 2
              }
            }
          }
        }
      }
      attr {
        key: "dtype"
        value {
          type: DT_STRING
        }
      }
      attr {
        key: "value"
        value {
          tensor {
            dtype: DT_STRING
            tensor_shape {
              dim {
                size: 2
              }
            }
            string_val: "learning_rate_constant"
            string_val: "2.0"
          }
        }
      }
    }
    node {
      name: "Const_41"
      op: "Const"
      attr {
        key: "_output_shapes"
        value {
          list {
            shape {
              dim {
                size: 2
              }
            }
          }
        }
      }
      attr {
        key: "dtype"
        value {
          type: DT_STRING
        }
      }
      attr {
        key: "value"
        value {
          tensor {
            dtype: DT_STRING
            tensor_shape {
              dim {
                size: 2
              }
            }
            string_val: "learning_rate_decay_scheme"
            string_val: "noam"
          }
        }
      }
    }
    node {
      name: "Const_42"
      op: "Const"
      attr {
        key: "_output_shapes"
        value {
          list {
            shape {
              dim {
                size: 2
              }
            }
          }
        }
      }
      attr {
        key: "dtype"
        value {
          type: DT_STRING
        }
      }
      attr {
        key: "value"
        value {
          tensor {
            dtype: DT_STRING
            tensor_shape {
              dim {
                size: 2
              }
            }
            string_val: "learning_rate_decay_steps"
            string_val: "5000"
          }
        }
      }
    }
    node {
      name: "Const_43"
      op: "Const"
      attr {
        key: "_output_shapes"
        value {
          list {
            shape {
              dim {
                size: 2
              }
            }
          }
        }
      }
      attr {
        key: "dtype"
        value {
          type: DT_STRING
        }
      }
      attr {
        key: "value"
        value {
          tensor {
            dtype: DT_STRING
            tensor_shape {
              dim {
                size: 2
              }
            }
            string_val: "learning_rate_decay_staircase"
            string_val: "False"
          }
        }
      }
    }
    node {
      name: "Const_44"
      op: "Const"
      attr {
        key: "_output_shapes"
        value {
          list {
            shape {
              dim {
                size: 2
              }
            }
          }
        }
      }
      attr {
        key: "dtype"
        value {
          type: DT_STRING
        }
      }
      attr {
        key: "value"
        value {
          tensor {
            dtype: DT_STRING
            tensor_shape {
              dim {
                size: 2
              }
            }
            string_val: "learning_rate_minimum"
            string_val: "None"
          }
        }
      }
    }
    node {
      name: "Const_45"
      op: "Const"
      attr {
        key: "_output_shapes"
        value {
          list {
            shape {
              dim {
                size: 2
              }
            }
          }
        }
      }
      attr {
        key: "dtype"
        value {
          type: DT_STRING
        }
      }
      attr {
        key: "value"
        value {
          tensor {
            dtype: DT_STRING
            tensor_shape {
              dim {
                size: 2
              }
            }
            string_val: "learning_rate_decay_rate"
            string_val: "1.0"
          }
        }
      }
    }
    node {
      name: "Const_46"
      op: "Const"
      attr {
        key: "_output_shapes"
        value {
          list {
            shape {
              dim {
                size: 2
              }
            }
          }
        }
      }
      attr {
        key: "dtype"
        value {
          type: DT_STRING
        }
      }
      attr {
        key: "value"
        value {
          tensor {
            dtype: DT_STRING
            tensor_shape {
              dim {
                size: 2
              }
            }
            string_val: "learning_rate_warmup_steps"
            string_val: "8000"
          }
        }
      }
    }
    node {
      name: "Const_47"
      op: "Const"
      attr {
        key: "_output_shapes"
        value {
          list {
            shape {
              dim {
                size: 2
              }
            }
          }
        }
      }
      attr {
        key: "dtype"
        value {
          type: DT_STRING
        }
      }
      attr {
        key: "value"
        value {
          tensor {
            dtype: DT_STRING
            tensor_shape {
              dim {
                size: 2
              }
            }
            string_val: "learning_rate_cosine_cycle_steps"
            string_val: "250000"
          }
        }
      }
    }
    node {
      name: "Const_48"
      op: "Const"
      attr {
        key: "_output_shapes"
        value {
          list {
            shape {
              dim {
                size: 2
              }
            }
          }
        }
      }
      attr {
        key: "dtype"
        value {
          type: DT_STRING
        }
      }
      attr {
        key: "value"
        value {
          tensor {
            dtype: DT_STRING
            tensor_shape {
              dim {
                size: 2
              }
            }
            string_val: "learning_rate"
            string_val: "0.2"
          }
        }
      }
    }
    node {
      name: "Const_49"
      op: "Const"
      attr {
        key: "_output_shapes"
        value {
          list {
            shape {
              dim {
                size: 2
              }
            }
          }
        }
      }
      attr {
        key: "dtype"
        value {
          type: DT_STRING
        }
      }
      attr {
        key: "value"
        value {
          tensor {
            dtype: DT_STRING
            tensor_shape {
              dim {
                size: 2
              }
            }
            string_val: "sampling_method"
            string_val: "argmax"
          }
        }
      }
    }
    node {
      name: "Const_50"
      op: "Const"
      attr {
        key: "_output_shapes"
        value {
          list {
            shape {
              dim {
                size: 2
              }
            }
          }
        }
      }
      attr {
        key: "dtype"
        value {
          type: DT_STRING
        }
      }
      attr {
        key: "value"
        value {
          tensor {
            dtype: DT_STRING
            tensor_shape {
              dim {
                size: 2
              }
            }
            string_val: "sampling_temp"
            string_val: "1.0"
          }
        }
      }
    }
    node {
      name: "Const_51"
      op: "Const"
      attr {
        key: "_output_shapes"
        value {
          list {
            shape {
              dim {
                size: 2
              }
            }
          }
        }
      }
      attr {
        key: "dtype"
        value {
          type: DT_STRING
        }
      }
      attr {
        key: "value"
        value {
          tensor {
            dtype: DT_STRING
            tensor_shape {
              dim {
                size: 2
              }
            }
            string_val: "sampling_keep_top_k"
            string_val: "-1"
          }
        }
      }
    }
    node {
      name: "Const_52"
      op: "Const"
      attr {
        key: "_output_shapes"
        value {
          list {
            shape {
              dim {
                size: 2
              }
            }
          }
        }
      }
      attr {
        key: "dtype"
        value {
          type: DT_STRING
        }
      }
      attr {
        key: "value"
        value {
          tensor {
            dtype: DT_STRING
            tensor_shape {
              dim {
                size: 2
              }
            }
            string_val: "factored_logits"
            string_val: "False"
          }
        }
      }
    }
    node {
      name: "Const_53"
      op: "Const"
      attr {
        key: "_output_shapes"
        value {
          list {
            shape {
              dim {
                size: 2
              }
            }
          }
        }
      }
      attr {
        key: "dtype"
        value {
          type: DT_STRING
        }
      }
      attr {
        key: "value"
        value {
          tensor {
            dtype: DT_STRING
            tensor_shape {
              dim {
                size: 2
              }
            }
            string_val: "multiply_embedding_mode"
            string_val: "sqrt_depth"
          }
        }
      }
    }
    node {
      name: "Const_54"
      op: "Const"
      attr {
        key: "_output_shapes"
        value {
          list {
            shape {
              dim {
                size: 2
              }
            }
          }
        }
      }
      attr {
        key: "dtype"
        value {
          type: DT_STRING
        }
      }
      attr {
        key: "value"
        value {
          tensor {
            dtype: DT_STRING
            tensor_shape {
              dim {
                size: 2
              }
            }
            string_val: "moe_hidden_sizes"
            string_val: "2048"
          }
        }
      }
    }
    node {
      name: "Const_55"
      op: "Const"
      attr {
        key: "_output_shapes"
        value {
          list {
            shape {
              dim {
                size: 2
              }
            }
          }
        }
      }
      attr {
        key: "dtype"
        value {
          type: DT_STRING
        }
      }
      attr {
        key: "value"
        value {
          tensor {
            dtype: DT_STRING
            tensor_shape {
              dim {
                size: 2
              }
            }
            string_val: "moe_num_experts"
            string_val: "16"
          }
        }
      }
    }
    node {
      name: "Const_56"
      op: "Const"
      attr {
        key: "_output_shapes"
        value {
          list {
            shape {
              dim {
                size: 2
              }
            }
          }
        }
      }
      attr {
        key: "dtype"
        value {
          type: DT_STRING
        }
      }
      attr {
        key: "value"
        value {
          tensor {
            dtype: DT_STRING
            tensor_shape {
              dim {
                size: 2
              }
            }
            string_val: "moe_k"
            string_val: "2"
          }
        }
      }
    }
    node {
      name: "Const_57"
      op: "Const"
      attr {
        key: "_output_shapes"
        value {
          list {
            shape {
              dim {
                size: 2
              }
            }
          }
        }
      }
      attr {
        key: "dtype"
        value {
          type: DT_STRING
        }
      }
      attr {
        key: "value"
        value {
          tensor {
            dtype: DT_STRING
            tensor_shape {
              dim {
                size: 2
              }
            }
            string_val: "moe_loss_coef"
            string_val: "0.001"
          }
        }
      }
    }
    node {
      name: "Const_58"
      op: "Const"
      attr {
        key: "_output_shapes"
        value {
          list {
            shape {
              dim {
                size: 2
              }
            }
          }
        }
      }
      attr {
        key: "dtype"
        value {
          type: DT_STRING
        }
      }
      attr {
        key: "value"
        value {
          tensor {
            dtype: DT_STRING
            tensor_shape {
              dim {
                size: 2
              }
            }
            string_val: "layer_preprocess_sequence"
            string_val: "n"
          }
        }
      }
    }
    node {
      name: "Const_59"
      op: "Const"
      attr {
        key: "_output_shapes"
        value {
          list {
            shape {
              dim {
                size: 2
              }
            }
          }
        }
      }
      attr {
        key: "dtype"
        value {
          type: DT_STRING
        }
      }
      attr {
        key: "value"
        value {
          tensor {
            dtype: DT_STRING
            tensor_shape {
              dim {
                size: 2
              }
            }
            string_val: "layer_postprocess_sequence"
            string_val: "da"
          }
        }
      }
    }
    node {
      name: "Const_60"
      op: "Const"
      attr {
        key: "_output_shapes"
        value {
          list {
            shape {
              dim {
                size: 2
              }
            }
          }
        }
      }
      attr {
        key: "dtype"
        value {
          type: DT_STRING
        }
      }
      attr {
        key: "value"
        value {
          tensor {
            dtype: DT_STRING
            tensor_shape {
              dim {
                size: 2
              }
            }
            string_val: "layer_prepostprocess_dropout"
            string_val: "0.0"
          }
        }
      }
    }
    node {
      name: "Const_61"
      op: "Const"
      attr {
        key: "_output_shapes"
        value {
          list {
            shape {
              dim {
                size: 2
              }
            }
          }
        }
      }
      attr {
        key: "dtype"
        value {
          type: DT_STRING
        }
      }
      attr {
        key: "value"
        value {
          tensor {
            dtype: DT_STRING
            tensor_shape {
              dim {
                size: 2
              }
            }
            string_val: "layer_prepostprocess_dropout_broadcast_dims"
            string_val: ""
          }
        }
      }
    }
    node {
      name: "Const_62"
      op: "Const"
      attr {
        key: "_output_shapes"
        value {
          list {
            shape {
              dim {
                size: 2
              }
            }
          }
        }
      }
      attr {
        key: "dtype"
        value {
          type: DT_STRING
        }
      }
      attr {
        key: "value"
        value {
          tensor {
            dtype: DT_STRING
            tensor_shape {
              dim {
                size: 2
              }
            }
            string_val: "symbol_dropout"
            string_val: "0.0"
          }
        }
      }
    }
    node {
      name: "Const_63"
      op: "Const"
      attr {
        key: "_output_shapes"
        value {
          list {
            shape {
              dim {
                size: 2
              }
            }
          }
        }
      }
      attr {
        key: "dtype"
        value {
          type: DT_STRING
        }
      }
      attr {
        key: "value"
        value {
          tensor {
            dtype: DT_STRING
            tensor_shape {
              dim {
                size: 2
              }
            }
            string_val: "norm_type"
            string_val: "layer"
          }
        }
      }
    }
    node {
      name: "Const_64"
      op: "Const"
      attr {
        key: "_output_shapes"
        value {
          list {
            shape {
              dim {
                size: 2
              }
            }
          }
        }
      }
      attr {
        key: "dtype"
        value {
          type: DT_STRING
        }
      }
      attr {
        key: "value"
        value {
          tensor {
            dtype: DT_STRING
            tensor_shape {
              dim {
                size: 2
              }
            }
            string_val: "norm_epsilon"
            string_val: "1e-06"
          }
        }
      }
    }
    node {
      name: "Const_65"
      op: "Const"
      attr {
        key: "_output_shapes"
        value {
          list {
            shape {
              dim {
                size: 2
              }
            }
          }
        }
      }
      attr {
        key: "dtype"
        value {
          type: DT_STRING
        }
      }
      attr {
        key: "value"
        value {
          tensor {
            dtype: DT_STRING
            tensor_shape {
              dim {
                size: 2
              }
            }
            string_val: "vocab_divisor"
            string_val: "1"
          }
        }
      }
    }
    node {
      name: "Const_66"
      op: "Const"
      attr {
        key: "_output_shapes"
        value {
          list {
            shape {
              dim {
                size: 2
              }
            }
          }
        }
      }
      attr {
        key: "dtype"
        value {
          type: DT_STRING
        }
      }
      attr {
        key: "value"
        value {
          tensor {
            dtype: DT_STRING
            tensor_shape {
              dim {
                size: 2
              }
            }
            string_val: "min_length"
            string_val: "0"
          }
        }
      }
    }
    node {
      name: "Const_67"
      op: "Const"
      attr {
        key: "_output_shapes"
        value {
          list {
            shape {
              dim {
                size: 2
              }
            }
          }
        }
      }
      attr {
        key: "dtype"
        value {
          type: DT_STRING
        }
      }
      attr {
        key: "value"
        value {
          tensor {
            dtype: DT_STRING
            tensor_shape {
              dim {
                size: 2
              }
            }
            string_val: "max_length"
            string_val: "256"
          }
        }
      }
    }
    node {
      name: "Const_68"
      op: "Const"
      attr {
        key: "_output_shapes"
        value {
          list {
            shape {
              dim {
                size: 2
              }
            }
          }
        }
      }
      attr {
        key: "dtype"
        value {
          type: DT_STRING
        }
      }
      attr {
        key: "value"
        value {
          tensor {
            dtype: DT_STRING
            tensor_shape {
              dim {
                size: 2
              }
            }
            string_val: "pack_dataset"
            string_val: "False"
          }
        }
      }
    }
    node {
      name: "Const_69"
      op: "Const"
      attr {
        key: "_output_shapes"
        value {
          list {
            shape {
              dim {
                size: 2
              }
            }
          }
        }
      }
      attr {
        key: "dtype"
        value {
          type: DT_STRING
        }
      }
      attr {
        key: "value"
        value {
          tensor {
            dtype: DT_STRING
            tensor_shape {
              dim {
                size: 2
              }
            }
            string_val: "use_custom_ops"
            string_val: "True"
          }
        }
      }
    }
    node {
      name: "Const_70"
      op: "Const"
      attr {
        key: "_output_shapes"
        value {
          list {
            shape {
              dim {
                size: 2
              }
            }
          }
        }
      }
      attr {
        key: "dtype"
        value {
          type: DT_STRING
        }
      }
      attr {
        key: "value"
        value {
          tensor {
            dtype: DT_STRING
            tensor_shape {
              dim {
                size: 2
              }
            }
            string_val: "split_targets_chunk_length"
            string_val: "0"
          }
        }
      }
    }
    node {
      name: "Const_71"
      op: "Const"
      attr {
        key: "_output_shapes"
        value {
          list {
            shape {
              dim {
                size: 2
              }
            }
          }
        }
      }
      attr {
        key: "dtype"
        value {
          type: DT_STRING
        }
      }
      attr {
        key: "value"
        value {
          tensor {
            dtype: DT_STRING
            tensor_shape {
              dim {
                size: 2
              }
            }
            string_val: "split_targets_max_chunks"
            string_val: "100"
          }
        }
      }
    }
    node {
      name: "Const_72"
      op: "Const"
      attr {
        key: "_output_shapes"
        value {
          list {
            shape {
              dim {
                size: 2
              }
            }
          }
        }
      }
      attr {
        key: "dtype"
        value {
          type: DT_STRING
        }
      }
      attr {
        key: "value"
        value {
          tensor {
            dtype: DT_STRING
            tensor_shape {
              dim {
                size: 2
              }
            }
            string_val: "split_targets_strided_training"
            string_val: "False"
          }
        }
      }
    }
    node {
      name: "Const_73"
      op: "Const"
      attr {
        key: "_output_shapes"
        value {
          list {
            shape {
              dim {
                size: 2
              }
            }
          }
        }
      }
      attr {
        key: "dtype"
        value {
          type: DT_STRING
        }
      }
      attr {
        key: "value"
        value {
          tensor {
            dtype: DT_STRING
            tensor_shape {
              dim {
                size: 2
              }
            }
            string_val: "min_length_bucket"
            string_val: "8"
          }
        }
      }
    }
    node {
      name: "Const_74"
      op: "Const"
      attr {
        key: "_output_shapes"
        value {
          list {
            shape {
              dim {
                size: 2
              }
            }
          }
        }
      }
      attr {
        key: "dtype"
        value {
          type: DT_STRING
        }
      }
      attr {
        key: "value"
        value {
          tensor {
            dtype: DT_STRING
            tensor_shape {
              dim {
                size: 2
              }
            }
            string_val: "length_bucket_step"
            string_val: "1.1"
          }
        }
      }
    }
    node {
      name: "Const_75"
      op: "Const"
      attr {
        key: "_output_shapes"
        value {
          list {
            shape {
              dim {
                size: 2
              }
            }
          }
        }
      }
      attr {
        key: "dtype"
        value {
          type: DT_STRING
        }
      }
      attr {
        key: "value"
        value {
          tensor {
            dtype: DT_STRING
            tensor_shape {
              dim {
                size: 2
              }
            }
            string_val: "eval_drop_long_sequences"
            string_val: "False"
          }
        }
      }
    }
    node {
      name: "Const_76"
      op: "Const"
      attr {
        key: "_output_shapes"
        value {
          list {
            shape {
              dim {
                size: 2
              }
            }
          }
        }
      }
      attr {
        key: "dtype"
        value {
          type: DT_STRING
        }
      }
      attr {
        key: "value"
        value {
          tensor {
            dtype: DT_STRING
            tensor_shape {
              dim {
                size: 2
              }
            }
            string_val: "eval_run_autoregressive"
            string_val: "False"
          }
        }
      }
    }
    node {
      name: "Const_77"
      op: "Const"
      attr {
        key: "_output_shapes"
        value {
          list {
            shape {
              dim {
                size: 2
              }
            }
          }
        }
      }
      attr {
        key: "dtype"
        value {
          type: DT_STRING
        }
      }
      attr {
        key: "value"
        value {
          tensor {
            dtype: DT_STRING
            tensor_shape {
              dim {
                size: 2
              }
            }
            string_val: "shared_embedding_and_softmax_weights"
            string_val: "True"
          }
        }
      }
    }
    node {
      name: "Const_78"
      op: "Const"
      attr {
        key: "_output_shapes"
        value {
          list {
            shape {
              dim {
                size: 2
              }
            }
          }
        }
      }
      attr {
        key: "dtype"
        value {
          type: DT_STRING
        }
      }
      attr {
        key: "value"
        value {
          tensor {
            dtype: DT_STRING
            tensor_shape {
              dim {
                size: 2
              }
            }
            string_val: "shared_embedding"
            string_val: "False"
          }
        }
      }
    }
    node {
      name: "Const_79"
      op: "Const"
      attr {
        key: "_output_shapes"
        value {
          list {
            shape {
              dim {
                size: 2
              }
            }
          }
        }
      }
      attr {
        key: "dtype"
        value {
          type: DT_STRING
        }
      }
      attr {
        key: "value"
        value {
          tensor {
            dtype: DT_STRING
            tensor_shape {
              dim {
                size: 2
              }
            }
            string_val: "symbol_modality_num_shards"
            string_val: "16"
          }
        }
      }
    }
    node {
      name: "Const_80"
      op: "Const"
      attr {
        key: "_output_shapes"
        value {
          list {
            shape {
              dim {
                size: 2
              }
            }
          }
        }
      }
      attr {
        key: "dtype"
        value {
          type: DT_STRING
        }
      }
      attr {
        key: "value"
        value {
          tensor {
            dtype: DT_STRING
            tensor_shape {
              dim {
                size: 2
              }
            }
            string_val: "bottom"
            string_val: "{}"
          }
        }
      }
    }
    node {
      name: "Const_81"
      op: "Const"
      attr {
        key: "_output_shapes"
        value {
          list {
            shape {
              dim {
                size: 2
              }
            }
          }
        }
      }
      attr {
        key: "dtype"
        value {
          type: DT_STRING
        }
      }
      attr {
        key: "value"
        value {
          tensor {
            dtype: DT_STRING
            tensor_shape {
              dim {
                size: 2
              }
            }
            string_val: "loss"
            string_val: "{}"
          }
        }
      }
    }
    node {
      name: "Const_82"
      op: "Const"
      attr {
        key: "_output_shapes"
        value {
          list {
            shape {
              dim {
                size: 2
              }
            }
          }
        }
      }
      attr {
        key: "dtype"
        value {
          type: DT_STRING
        }
      }
      attr {
        key: "value"
        value {
          tensor {
            dtype: DT_STRING
            tensor_shape {
              dim {
                size: 2
              }
            }
            string_val: "name"
            string_val: "{}"
          }
        }
      }
    }
    node {
      name: "Const_83"
      op: "Const"
      attr {
        key: "_output_shapes"
        value {
          list {
            shape {
              dim {
                size: 2
              }
            }
          }
        }
      }
      attr {
        key: "dtype"
        value {
          type: DT_STRING
        }
      }
      attr {
        key: "value"
        value {
          tensor {
            dtype: DT_STRING
            tensor_shape {
              dim {
                size: 2
              }
            }
            string_val: "top"
            string_val: "{}"
          }
        }
      }
    }
    node {
      name: "Const_84"
      op: "Const"
      attr {
        key: "_output_shapes"
        value {
          list {
            shape {
              dim {
                size: 2
              }
            }
          }
        }
      }
      attr {
        key: "dtype"
        value {
          type: DT_STRING
        }
      }
      attr {
        key: "value"
        value {
          tensor {
            dtype: DT_STRING
            tensor_shape {
              dim {
                size: 2
              }
            }
            string_val: "weights_fn"
            string_val: "{}"
          }
        }
      }
    }
    node {
      name: "Const_85"
      op: "Const"
      attr {
        key: "_output_shapes"
        value {
          list {
            shape {
              dim {
                size: 2
              }
            }
          }
        }
      }
      attr {
        key: "dtype"
        value {
          type: DT_STRING
        }
      }
      attr {
        key: "value"
        value {
          tensor {
            dtype: DT_STRING
            tensor_shape {
              dim {
                size: 2
              }
            }
            string_val: "max_input_seq_length"
            string_val: "0"
          }
        }
      }
    }
    node {
      name: "Const_86"
      op: "Const"
      attr {
        key: "_output_shapes"
        value {
          list {
            shape {
              dim {
                size: 2
              }
            }
          }
        }
      }
      attr {
        key: "dtype"
        value {
          type: DT_STRING
        }
      }
      attr {
        key: "value"
        value {
          tensor {
            dtype: DT_STRING
            tensor_shape {
              dim {
                size: 2
              }
            }
            string_val: "max_target_seq_length"
            string_val: "0"
          }
        }
      }
    }
    node {
      name: "Const_87"
      op: "Const"
      attr {
        key: "_output_shapes"
        value {
          list {
            shape {
              dim {
                size: 2
              }
            }
          }
        }
      }
      attr {
        key: "dtype"
        value {
          type: DT_STRING
        }
      }
      attr {
        key: "value"
        value {
          tensor {
            dtype: DT_STRING
            tensor_shape {
              dim {
                size: 2
              }
            }
            string_val: "split_to_length"
            string_val: "0"
          }
        }
      }
    }
    node {
      name: "Const_88"
      op: "Const"
      attr {
        key: "_output_shapes"
        value {
          list {
            shape {
              dim {
                size: 2
              }
            }
          }
        }
      }
      attr {
        key: "dtype"
        value {
          type: DT_STRING
        }
      }
      attr {
        key: "value"
        value {
          tensor {
            dtype: DT_STRING
            tensor_shape {
              dim {
                size: 2
              }
            }
            string_val: "video_num_input_frames"
            string_val: "1"
          }
        }
      }
    }
    node {
      name: "Const_89"
      op: "Const"
      attr {
        key: "_output_shapes"
        value {
          list {
            shape {
              dim {
                size: 2
              }
            }
          }
        }
      }
      attr {
        key: "dtype"
        value {
          type: DT_STRING
        }
      }
      attr {
        key: "value"
        value {
          tensor {
            dtype: DT_STRING
            tensor_shape {
              dim {
                size: 2
              }
            }
            string_val: "video_num_target_frames"
            string_val: "1"
          }
        }
      }
    }
    node {
      name: "Const_90"
      op: "Const"
      attr {
        key: "_output_shapes"
        value {
          list {
            shape {
              dim {
                size: 2
              }
            }
          }
        }
      }
      attr {
        key: "dtype"
        value {
          type: DT_STRING
        }
      }
      attr {
        key: "value"
        value {
          tensor {
            dtype: DT_STRING
            tensor_shape {
              dim {
                size: 2
              }
            }
            string_val: "prepend_mode"
            string_val: "none"
          }
        }
      }
    }
    node {
      name: "Const_91"
      op: "Const"
      attr {
        key: "_output_shapes"
        value {
          list {
            shape {
              dim {
                size: 2
              }
            }
          }
        }
      }
      attr {
        key: "dtype"
        value {
          type: DT_STRING
        }
      }
      attr {
        key: "value"
        value {
          tensor {
            dtype: DT_STRING
            tensor_shape {
              dim {
                size: 2
              }
            }
            string_val: "scheduled_sampling_prob"
            string_val: "0.0"
          }
        }
      }
    }
    node {
      name: "Const_92"
      op: "Const"
      attr {
        key: "_output_shapes"
        value {
          list {
            shape {
              dim {
                size: 2
              }
            }
          }
        }
      }
      attr {
        key: "dtype"
        value {
          type: DT_STRING
        }
      }
      attr {
        key: "value"
        value {
          tensor {
            dtype: DT_STRING
            tensor_shape {
              dim {
                size: 2
              }
            }
            string_val: "scheduled_sampling_method"
            string_val: "parallel"
          }
        }
      }
    }
    node {
      name: "Const_93"
      op: "Const"
      attr {
        key: "_output_shapes"
        value {
          list {
            shape {
              dim {
                size: 2
              }
            }
          }
        }
      }
      attr {
        key: "dtype"
        value {
          type: DT_STRING
        }
      }
      attr {
        key: "value"
        value {
          tensor {
            dtype: DT_STRING
            tensor_shape {
              dim {
                size: 2
              }
            }
            string_val: "scheduled_sampling_warmup_steps"
            string_val: "50000"
          }
        }
      }
    }
    node {
      name: "Const_94"
      op: "Const"
      attr {
        key: "_output_shapes"
        value {
          list {
            shape {
              dim {
                size: 2
              }
            }
          }
        }
      }
      attr {
        key: "dtype"
        value {
          type: DT_STRING
        }
      }
      attr {
        key: "value"
        value {
          tensor {
            dtype: DT_STRING
            tensor_shape {
              dim {
                size: 2
              }
            }
            string_val: "scheduled_sampling_gold_mixin_prob"
            string_val: "0.5"
          }
        }
      }
    }
    node {
      name: "Const_95"
      op: "Const"
      attr {
        key: "_output_shapes"
        value {
          list {
            shape {
              dim {
                size: 2
              }
            }
          }
        }
      }
      attr {
        key: "dtype"
        value {
          type: DT_STRING
        }
      }
      attr {
        key: "value"
        value {
          tensor {
            dtype: DT_STRING
            tensor_shape {
              dim {
                size: 2
              }
            }
            string_val: "scheduled_sampling_num_passes"
            string_val: "1"
          }
        }
      }
    }
    node {
      name: "Const_96"
      op: "Const"
      attr {
        key: "_output_shapes"
        value {
          list {
            shape {
              dim {
                size: 2
              }
            }
          }
        }
      }
      attr {
        key: "dtype"
        value {
          type: DT_STRING
        }
      }
      attr {
        key: "value"
        value {
          tensor {
            dtype: DT_STRING
            tensor_shape {
              dim {
                size: 2
              }
            }
            string_val: "scheduled_sampling_warmup_schedule"
            string_val: "exp"
          }
        }
      }
    }
    node {
      name: "Const_97"
      op: "Const"
      attr {
        key: "_output_shapes"
        value {
          list {
            shape {
              dim {
                size: 2
              }
            }
          }
        }
      }
      attr {
        key: "dtype"
        value {
          type: DT_STRING
        }
      }
      attr {
        key: "value"
        value {
          tensor {
            dtype: DT_STRING
            tensor_shape {
              dim {
                size: 2
              }
            }
            string_val: "daisy_chain_variables"
            string_val: "True"
          }
        }
      }
    }
    node {
      name: "Const_98"
      op: "Const"
      attr {
        key: "_output_shapes"
        value {
          list {
            shape {
              dim {
                size: 2
              }
            }
          }
        }
      }
      attr {
        key: "dtype"
        value {
          type: DT_STRING
        }
      }
      attr {
        key: "value"
        value {
          tensor {
            dtype: DT_STRING
            tensor_shape {
              dim {
                size: 2
              }
            }
            string_val: "force_full_predict"
            string_val: "False"
          }
        }
      }
    }
    node {
      name: "Const_99"
      op: "Const"
      attr {
        key: "_output_shapes"
        value {
          list {
            shape {
              dim {
                size: 2
              }
            }
          }
        }
      }
      attr {
        key: "dtype"
        value {
          type: DT_STRING
        }
      }
      attr {
        key: "value"
        value {
          tensor {
            dtype: DT_STRING
            tensor_shape {
              dim {
                size: 2
              }
            }
            string_val: "no_data_parallelism"
            string_val: "True"
          }
        }
      }
    }
    node {
      name: "Const_100"
      op: "Const"
      attr {
        key: "_output_shapes"
        value {
          list {
            shape {
              dim {
                size: 2
              }
            }
          }
        }
      }
      attr {
        key: "dtype"
        value {
          type: DT_STRING
        }
      }
      attr {
        key: "value"
        value {
          tensor {
            dtype: DT_STRING
            tensor_shape {
              dim {
                size: 2
              }
            }
            string_val: "activation_dtype"
            string_val: "float32"
          }
        }
      }
    }
    node {
      name: "Const_101"
      op: "Const"
      attr {
        key: "_output_shapes"
        value {
          list {
            shape {
              dim {
                size: 2
              }
            }
          }
        }
      }
      attr {
        key: "dtype"
        value {
          type: DT_STRING
        }
      }
      attr {
        key: "value"
        value {
          tensor {
            dtype: DT_STRING
            tensor_shape {
              dim {
                size: 2
              }
            }
            string_val: "weight_dtype"
            string_val: "float32"
          }
        }
      }
    }
    node {
      name: "Const_102"
      op: "Const"
      attr {
        key: "_output_shapes"
        value {
          list {
            shape {
              dim {
                size: 2
              }
            }
          }
        }
      }
      attr {
        key: "dtype"
        value {
          type: DT_STRING
        }
      }
      attr {
        key: "value"
        value {
          tensor {
            dtype: DT_STRING
            tensor_shape {
              dim {
                size: 2
              }
            }
            string_val: "pretrained_model_dir"
            string_val: ""
          }
        }
      }
    }
    node {
      name: "Const_103"
      op: "Const"
      attr {
        key: "_output_shapes"
        value {
          list {
            shape {
              dim {
                size: 2
              }
            }
          }
        }
      }
      attr {
        key: "dtype"
        value {
          type: DT_STRING
        }
      }
      attr {
        key: "value"
        value {
          tensor {
            dtype: DT_STRING
            tensor_shape {
              dim {
                size: 2
              }
            }
            string_val: "multiproblem_schedule_threshold"
            string_val: "0.5"
          }
        }
      }
    }
    node {
      name: "Const_104"
      op: "Const"
      attr {
        key: "_output_shapes"
        value {
          list {
            shape {
              dim {
                size: 2
              }
            }
          }
        }
      }
      attr {
        key: "dtype"
        value {
          type: DT_STRING
        }
      }
      attr {
        key: "value"
        value {
          tensor {
            dtype: DT_STRING
            tensor_shape {
              dim {
                size: 2
              }
            }
            string_val: "multiproblem_per_task_threshold"
            string_val: ""
          }
        }
      }
    }
    node {
      name: "Const_105"
      op: "Const"
      attr {
        key: "_output_shapes"
        value {
          list {
            shape {
              dim {
                size: 2
              }
            }
          }
        }
      }
      attr {
        key: "dtype"
        value {
          type: DT_STRING
        }
      }
      attr {
        key: "value"
        value {
          tensor {
            dtype: DT_STRING
            tensor_shape {
              dim {
                size: 2
              }
            }
            string_val: "multiproblem_schedule_max_examples"
            string_val: "10000000.0"
          }
        }
      }
    }
    node {
      name: "Const_106"
      op: "Const"
      attr {
        key: "_output_shapes"
        value {
          list {
            shape {
              dim {
                size: 2
              }
            }
          }
        }
      }
      attr {
        key: "dtype"
        value {
          type: DT_STRING
        }
      }
      attr {
        key: "value"
        value {
          tensor {
            dtype: DT_STRING
            tensor_shape {
              dim {
                size: 2
              }
            }
            string_val: "multiproblem_mixing_schedule"
            string_val: "constant"
          }
        }
      }
    }
    node {
      name: "Const_107"
      op: "Const"
      attr {
        key: "_output_shapes"
        value {
          list {
            shape {
              dim {
                size: 2
              }
            }
          }
        }
      }
      attr {
        key: "dtype"
        value {
          type: DT_STRING
        }
      }
      attr {
        key: "value"
        value {
          tensor {
            dtype: DT_STRING
            tensor_shape {
              dim {
                size: 2
              }
            }
            string_val: "multiproblem_reweight_label_loss"
            string_val: "False"
          }
        }
      }
    }
    node {
      name: "Const_108"
      op: "Const"
      attr {
        key: "_output_shapes"
        value {
          list {
            shape {
              dim {
                size: 2
              }
            }
          }
        }
      }
      attr {
        key: "dtype"
        value {
          type: DT_STRING
        }
      }
      attr {
        key: "value"
        value {
          tensor {
            dtype: DT_STRING
            tensor_shape {
              dim {
                size: 2
              }
            }
            string_val: "multiproblem_label_weight"
            string_val: "0.5"
          }
        }
      }
    }
    node {
      name: "Const_109"
      op: "Const"
      attr {
        key: "_output_shapes"
        value {
          list {
            shape {
              dim {
                size: 2
              }
            }
          }
        }
      }
      attr {
        key: "dtype"
        value {
          type: DT_STRING
        }
      }
      attr {
        key: "value"
        value {
          tensor {
            dtype: DT_STRING
            tensor_shape {
              dim {
                size: 2
              }
            }
            string_val: "max_relative_position"
            string_val: "0"
          }
        }
      }
    }
    node {
      name: "Const_110"
      op: "Const"
      attr {
        key: "_output_shapes"
        value {
          list {
            shape {
              dim {
                size: 2
              }
            }
          }
        }
      }
      attr {
        key: "dtype"
        value {
          type: DT_STRING
        }
      }
      attr {
        key: "value"
        value {
          tensor {
            dtype: DT_STRING
            tensor_shape {
              dim {
                size: 2
              }
            }
            string_val: "heads_share_relative_embedding"
            string_val: "False"
          }
        }
      }
    }
    node {
      name: "Const_111"
      op: "Const"
      attr {
        key: "_output_shapes"
        value {
          list {
            shape {
              dim {
                size: 2
              }
            }
          }
        }
      }
      attr {
        key: "dtype"
        value {
          type: DT_STRING
        }
      }
      attr {
        key: "value"
        value {
          tensor {
            dtype: DT_STRING
            tensor_shape {
              dim {
                size: 2
              }
            }
            string_val: "add_relative_to_values"
            string_val: "False"
          }
        }
      }
    }
    node {
      name: "Const_112"
      op: "Const"
      attr {
        key: "_output_shapes"
        value {
          list {
            shape {
              dim {
                size: 2
              }
            }
          }
        }
      }
      attr {
        key: "dtype"
        value {
          type: DT_STRING
        }
      }
      attr {
        key: "value"
        value {
          tensor {
            dtype: DT_STRING
            tensor_shape {
              dim {
                size: 2
              }
            }
            string_val: "tpu_enable_host_call"
            string_val: "False"
          }
        }
      }
    }
    node {
      name: "Const_113"
      op: "Const"
      attr {
        key: "_output_shapes"
        value {
          list {
            shape {
              dim {
                size: 2
              }
            }
          }
        }
      }
      attr {
        key: "dtype"
        value {
          type: DT_STRING
        }
      }
      attr {
        key: "value"
        value {
          tensor {
            dtype: DT_STRING
            tensor_shape {
              dim {
                size: 2
              }
            }
            string_val: "pad_batch"
            string_val: "False"
          }
        }
      }
    }
    node {
      name: "Const_114"
      op: "Const"
      attr {
        key: "_output_shapes"
        value {
          list {
            shape {
              dim {
                size: 2
              }
            }
          }
        }
      }
      attr {
        key: "dtype"
        value {
          type: DT_STRING
        }
      }
      attr {
        key: "value"
        value {
          tensor {
            dtype: DT_STRING
            tensor_shape {
              dim {
                size: 2
              }
            }
            string_val: "multiproblem_target_eval_only"
            string_val: "False"
          }
        }
      }
    }
    node {
      name: "Const_115"
      op: "Const"
      attr {
        key: "_output_shapes"
        value {
          list {
            shape {
              dim {
                size: 2
              }
            }
          }
        }
      }
      attr {
        key: "dtype"
        value {
          type: DT_STRING
        }
      }
      attr {
        key: "value"
        value {
          tensor {
            dtype: DT_STRING
            tensor_shape {
              dim {
                size: 2
              }
            }
            string_val: "multiproblem_vocab_size"
            string_val: "-1"
          }
        }
      }
    }
    node {
      name: "Const_116"
      op: "Const"
      attr {
        key: "_output_shapes"
        value {
          list {
            shape {
              dim {
                size: 2
              }
            }
          }
        }
      }
      attr {
        key: "dtype"
        value {
          type: DT_STRING
        }
      }
      attr {
        key: "value"
        value {
          tensor {
            dtype: DT_STRING
            tensor_shape {
              dim {
                size: 2
              }
            }
            string_val: "multiproblem_max_input_length"
            string_val: "-1"
          }
        }
      }
    }
    node {
      name: "Const_117"
      op: "Const"
      attr {
        key: "_output_shapes"
        value {
          list {
            shape {
              dim {
                size: 2
              }
            }
          }
        }
      }
      attr {
        key: "dtype"
        value {
          type: DT_STRING
        }
      }
      attr {
        key: "value"
        value {
          tensor {
            dtype: DT_STRING
            tensor_shape {
              dim {
                size: 2
              }
            }
            string_val: "multiproblem_max_target_length"
            string_val: "-1"
          }
        }
      }
    }
    node {
      name: "Const_118"
      op: "Const"
      attr {
        key: "_output_shapes"
        value {
          list {
            shape {
              dim {
                size: 2
              }
            }
          }
        }
      }
      attr {
        key: "dtype"
        value {
          type: DT_STRING
        }
      }
      attr {
        key: "value"
        value {
          tensor {
            dtype: DT_STRING
            tensor_shape {
              dim {
                size: 2
              }
            }
            string_val: "multiproblem_fixed_train_length"
            string_val: "-1"
          }
        }
      }
    }
    node {
      name: "Const_119"
      op: "Const"
      attr {
        key: "_output_shapes"
        value {
          list {
            shape {
              dim {
                size: 2
              }
            }
…
/while/body/parallel_0/body/decoder/layer_1/self_attention/multihead_attention/split_heads/split_last_dimension/strided_slice:0\n\222\001transformer/while/body/parallel_0/body/decoder/layer_1/self_attention/multihead_attention/split_heads/split_last_dimension/strided_slice_1/stack:0\n\224\001transformer/while/body/parallel_0/body/decoder/layer_1/self_attention/multihead_attention/split_heads/split_last_dimension/strided_slice_1/stack_1:0\n\224\001transformer/while/body/parallel_0/body/decoder/layer_1/self_attention/multihead_attention/split_heads/split_last_dimension/strided_slice_1/stack_2:0\n\214\001transformer/while/body/parallel_0/body/decoder/layer_1/self_attention/multihead_attention/split_heads/split_last_dimension/strided_slice_1:0\nvtransformer/while/body/parallel_0/body/decoder/layer_1/self_attention/multihead_attention/split_heads/transpose/perm:0\nqtransformer/while/body/parallel_0/body/decoder/layer_1/self_attention/multihead_attention/split_heads/transpose:0\n\216\001transformer/while/body/parallel_0/body/decoder/layer_1/self_attention/multihead_attention/split_heads_1/split_last_dimension/Reshape/shape/2:0\n\216\001transformer/while/body/parallel_0/body/decoder/layer_1/self_attention/multihead_attention/split_heads_1/split_last_dimension/Reshape/shape/3:0\n\214\001transformer/while/body/parallel_0/body/decoder/layer_1/self_attention/multihead_attention/split_heads_1/split_last_dimension/Reshape/shape:0\n\206\001transformer/while/body/parallel_0/body/decoder/layer_1/self_attention/multihead_attention/split_heads_1/split_last_dimension/Reshape:0\n\204\001transformer/while/body/parallel_0/body/decoder/layer_1/self_attention/multihead_attention/split_heads_1/split_last_dimension/Shape:0\n\222\001transformer/while/body/parallel_0/body/decoder/layer_1/self_attention/multihead_attention/split_heads_1/split_last_dimension/strided_slice/stack:0\n\224\001transformer/while/body/parallel_0/body/decoder/layer_1/self_attention/multihead_attention/split_heads_1/split_last_dimension/strided_slice/stack_1:0\n\224\001transformer/while/body/parallel_0/body/decoder/layer_1/self_attention/multihead_attention/split_heads_1/split_last_dimension/strided_slice/stack_2:0\n\214\001transformer/while/body/parallel_0/body/decoder/layer_1/self_attention/multihead_attention/split_heads_1/split_last_dimension/strided_slice:0\n\224\001transformer/while/body/parallel_0/body/decoder/layer_1/self_attention/multihead_attention/split_heads_1/split_last_dimension/strided_slice_1/stack:0\n\226\001transformer/while/body/parallel_0/body/decoder/layer_1/self_attention/multihead_attention/split_heads_1/split_last_dimension/strided_slice_1/stack_1:0\n\226\001transformer/while/body/parallel_0/body/decoder/layer_1/self_attention/multihead_attention/split_heads_1/split_last_dimension/strided_slice_1/stack_2:0\n\216\001transformer/while/body/parallel_0/body/decoder/layer_1/self_attention/multihead_attention/split_heads_1/split_last_dimension/strided_slice_1:0\nxtransformer/while/body/parallel_0/body/decoder/layer_1/self_attention/multihead_attention/split_heads_1/transpose/perm:0\nstransformer/while/body/parallel_0/body/decoder/layer_1/self_attention/multihead_attention/split_heads_1/transpose:0\n\216\001transformer/while/body/parallel_0/body/decoder/layer_1/self_attention/multihead_attention/split_heads_2/split_last_dimension/Reshape/shape/2:0\n\216\001transformer/while/body/parallel_0/body/decoder/layer_1/self_attention/multihead_attention/split_heads_2/split_last_dimension/Reshape/shape/3:0\n\214\001transformer/while/body/parallel_0/body/decoder/layer_1/self_attention/multihead_attention/split_heads_2/split_last_dimension/Reshape/shape:0\n\206\001transformer/while/body/parallel_0/body/decoder/layer_1/self_attention/multihead_attention/split_heads_2/split_last_dimension/Reshape:0\n\204\001transformer/while/body/parallel_0/body/decoder/layer_1/self_attention/multihead_attention/split_heads_2/split_last_dimension/Shape:0\n\222\001transformer/while/body/parallel_0/body/decoder/layer_1/self_attention/multihead_attention/split_heads_2/split_last_dimension/strided_slice/stack:0\n\224\001transformer/while/body/parallel_0/body/decoder/layer_1/self_attention/multihead_attention/split_heads_2/split_last_dimension/strided_slice/stack_1:0\n\224\001transformer/while/body/parallel_0/body/decoder/layer_1/self_attention/multihead_attention/split_heads_2/split_last_dimension/strided_slice/stack_2:0\n\214\001transformer/while/body/parallel_0/body/decoder/layer_1/self_attention/multihead_attention/split_heads_2/split_last_dimension/strided_slice:0\n\224\001transformer/while/body/parallel_0/body/decoder/layer_1/self_attention/multihead_attention/split_heads_2/split_last_dimension/strided_slice_1/stack:0\n\226\001transformer/while/body/parallel_0/body/decoder/layer_1/self_attention/multihead_attention/split_heads_2/split_last_dimension/strided_slice_1/stack_1:0\n\226\001transformer/while/body/parallel_0/body/decoder/layer_1/self_attention/multihead_attention/split_heads_2/split_last_dimension/strided_slice_1/stack_2:0\n\216\001transformer/while/body/parallel_0/body/decoder/layer_1/self_attention/multihead_attention/split_heads_2/split_last_dimension/strided_slice_1:0\nxtransformer/while/body/parallel_0/body/decoder/layer_1/self_attention/multihead_attention/split_heads_2/transpose/perm:0\nstransformer/while/body/parallel_0/body/decoder/layer_1/self_attention/multihead_attention/split_heads_2/transpose:0\nmtransformer/while/body/parallel_0/body/decoder/layer_1/self_attention/multihead_attention/v/Tensordot/Const:0\notransformer/while/body/parallel_0/body/decoder/layer_1/self_attention/multihead_attention/v/Tensordot/Const_1:0\notransformer/while/body/parallel_0/body/decoder/layer_1/self_attention/multihead_attention/v/Tensordot/Const_2:0\nutransformer/while/body/parallel_0/body/decoder/layer_1/self_attention/multihead_attention/v/Tensordot/GatherV2/axis:0\nptransformer/while/body/parallel_0/body/decoder/layer_1/self_attention/multihead_attention/v/Tensordot/GatherV2:0\nwtransformer/while/body/parallel_0/body/decoder/layer_1/self_attention/multihead_attention/v/Tensordot/GatherV2_1/axis:0\nrtransformer/while/body/parallel_0/body/decoder/layer_1/self_attention/multihead_attention/v/Tensordot/GatherV2_1:0\nntransformer/while/body/parallel_0/body/decoder/layer_1/self_attention/multihead_attention/v/Tensordot/MatMul:0\nltransformer/while/body/parallel_0/body/decoder/layer_1/self_attention/multihead_attention/v/Tensordot/Prod:0\nntransformer/while/body/parallel_0/body/decoder/layer_1/self_attention/multihead_attention/v/Tensordot/Prod_1:0\notransformer/while/body/parallel_0/body/decoder/layer_1/self_attention/multihead_attention/v/Tensordot/Reshape:0\nwtransformer/while/body/parallel_0/body/decoder/layer_1/self_attention/multihead_attention/v/Tensordot/Reshape_1/shape:0\nqtransformer/while/body/parallel_0/body/decoder/layer_1/self_attention/multihead_attention/v/Tensordot/Reshape_1:0\nmtransformer/while/body/parallel_0/body/decoder/layer_1/self_attention/multihead_attention/v/Tensordot/Shape:0\nltransformer/while/body/parallel_0/body/decoder/layer_1/self_attention/multihead_attention/v/Tensordot/axes:0\nstransformer/while/body/parallel_0/body/decoder/layer_1/self_attention/multihead_attention/v/Tensordot/concat/axis:0\nntransformer/while/body/parallel_0/body/decoder/layer_1/self_attention/multihead_attention/v/Tensordot/concat:0\nutransformer/while/body/parallel_0/body/decoder/layer_1/self_attention/multihead_attention/v/Tensordot/concat_1/axis:0\nptransformer/while/body/parallel_0/body/decoder/layer_1/self_attention/multihead_attention/v/Tensordot/concat_1:0\nltransformer/while/body/parallel_0/body/decoder/layer_1/self_attention/multihead_attention/v/Tensordot/free:0\nmtransformer/while/body/parallel_0/body/decoder/layer_1/self_attention/multihead_attention/v/Tensordot/stack:0\nqtransformer/while/body/parallel_0/body/decoder/layer_1/self_attention/multihead_attention/v/Tensordot/transpose:0\nxtransformer/while/body/parallel_0/body/decoder/layer_1/self_attention/multihead_attention/v/Tensordot/transpose_1/perm:0\nstransformer/while/body/parallel_0/body/decoder/layer_1/self_attention/multihead_attention/v/Tensordot/transpose_1:0\ngtransformer/while/body/parallel_0/body/decoder/layer_1/self_attention/multihead_attention/v/Tensordot:0\nLtransformer/while/body/parallel_0/body/decoder/layer_1_1/ffn/conv1/BiasAdd:0\nItransformer/while/body/parallel_0/body/decoder/layer_1_1/ffn/conv1/Relu:0\nTtransformer/while/body/parallel_0/body/decoder/layer_1_1/ffn/conv1/Tensordot/Const:0\nVtransformer/while/body/parallel_0/body/decoder/layer_1_1/ffn/conv1/Tensordot/Const_1:0\nVtransformer/while/body/parallel_0/body/decoder/layer_1_1/ffn/conv1/Tensordot/Const_2:0\n\\transformer/while/body/parallel_0/body/decoder/layer_1_1/ffn/conv1/Tensordot/GatherV2/axis:0\nWtransformer/while/body/parallel_0/body/decoder/layer_1_1/ffn/conv1/Tensordot/GatherV2:0\n^transformer/while/body/parallel_0/body/decoder/layer_1_1/ffn/conv1/Tensordot/GatherV2_1/axis:0\nYtransformer/while/body/parallel_0/body/decoder/layer_1_1/ffn/conv1/Tensordot/GatherV2_1:0\nUtransformer/while/body/parallel_0/body/decoder/layer_1_1/ffn/conv1/Tensordot/MatMul:0\nStransformer/while/body/parallel_0/body/decoder/layer_1_1/ffn/conv1/Tensordot/Prod:0\nUtransformer/while/body/parallel_0/body/decoder/layer_1_1/ffn/conv1/Tensordot/Prod_1:0\nVtransformer/while/body/parallel_0/body/decoder/layer_1_1/ffn/conv1/Tensordot/Reshape:0\n^transformer/while/body/parallel_0/body/decoder/layer_1_1/ffn/conv1/Tensordot/Reshape_1/shape:0\nXtransformer/while/body/parallel_0/body/decoder/layer_1_1/ffn/conv1/Tensordot/Reshape_1:0\nTtransformer/while/body/parallel_0/body/decoder/layer_1_1/ffn/conv1/Tensordot/Shape:0\nStransformer/while/body/parallel_0/body/decoder/layer_1_1/ffn/conv1/Tensordot/axes:0\nZtransformer/while/body/parallel_0/body/decoder/layer_1_1/ffn/conv1/Tensordot/concat/axis:0\nUtransformer/while/body/parallel_0/body/decoder/layer_1_1/ffn/conv1/Tensordot/concat:0\n\\transformer/while/body/parallel_0/body/decoder/layer_1_1/ffn/conv1/Tensordot/concat_1/axis:0\nWtransformer/while/body/parallel_0/body/decoder/layer_1_1/ffn/conv1/Tensordot/concat_1:0\nStransformer/while/body/parallel_0/body/decoder/layer_1_1/ffn/conv1/Tensordot/free:0\nTtransformer/while/body/parallel_0/body/decoder/layer_1_1/ffn/conv1/Tensordot/stack:0\nXtransformer/while/body/parallel_0/body/decoder/layer_1_1/ffn/conv1/Tensordot/transpose:0\n_transformer/while/body/parallel_0/body/decoder/layer_1_1/ffn/conv1/Tensordot/transpose_1/perm:0\nZtransformer/while/body/parallel_0/body/decoder/layer_1_1/ffn/conv1/Tensordot/transpose_1:0\nNtransformer/while/body/parallel_0/body/decoder/layer_1_1/ffn/conv1/Tensordot:0\nLtransformer/while/body/parallel_0/body/decoder/layer_1_1/ffn/conv2/BiasAdd:0\nTtransformer/while/body/parallel_0/body/decoder/layer_1_1/ffn/conv2/Tensordot/Const:0\nVtransformer/while/body/parallel_0/body/decoder/layer_1_1/ffn/conv2/Tensordot/Const_1:0\nVtransformer/while/body/parallel_0/body/decoder/layer_1_1/ffn/conv2/Tensordot/Const_2:0\n\\transformer/while/body/parallel_0/body/decoder/layer_1_1/ffn/conv2/Tensordot/GatherV2/axis:0\nWtransformer/while/body/parallel_0/body/decoder/layer_1_1/ffn/conv2/Tensordot/GatherV2:0\n^transformer/while/body/parallel_0/body/decoder/layer_1_1/ffn/conv2/Tensordot/GatherV2_1/axis:0\nYtransformer/while/body/parallel_0/body/decoder/layer_1_1/ffn/conv2/Tensordot/GatherV2_1:0\nUtransformer/while/body/parallel_0/body/decoder/layer_1_1/ffn/conv2/Tensordot/MatMul:0\nStransformer/while/body/parallel_0/body/decoder/layer_1_1/ffn/conv2/Tensordot/Prod:0\nUtransformer/while/body/parallel_0/body/decoder/layer_1_1/ffn/conv2/Tensordot/Prod_1:0\nVtransformer/while/body/parallel_0/body/decoder/layer_1_1/ffn/conv2/Tensordot/Reshape:0\n^transformer/while/body/parallel_0/body/decoder/layer_1_1/ffn/conv2/Tensordot/Reshape_1/shape:0\nXtransformer/while/body/parallel_0/body/decoder/layer_1_1/ffn/conv2/Tensordot/Reshape_1:0\nTtransformer/while/body/parallel_0/body/decoder/layer_1_1/ffn/conv2/Tensordot/Shape:0\nStransformer/while/body/parallel_0/body/decoder/layer_1_1/ffn/conv2/Tensordot/axes:0\nZtransformer/while/body/parallel_0/body/decoder/layer_1_1/ffn/conv2/Tensordot/concat/axis:0\nUtransformer/while/body/parallel_0/body/decoder/layer_1_1/ffn/conv2/Tensordot/concat:0\n\\transformer/while/body/parallel_0/body/decoder/layer_1_1/ffn/conv2/Tensordot/concat_1/axis:0\nWtransformer/while/body/parallel_0/body/decoder/layer_1_1/ffn/conv2/Tensordot/concat_1:0\nStransformer/while/body/parallel_0/body/decoder/layer_1_1/ffn/conv2/Tensordot/free:0\nTtransformer/while/body/parallel_0/body/decoder/layer_1_1/ffn/conv2/Tensordot/stack:0\nXtransformer/while/body/parallel_0/body/decoder/layer_1_1/ffn/conv2/Tensordot/transpose:0\n_transformer/while/body/parallel_0/body/decoder/layer_1_1/ffn/conv2/Tensordot/transpose_1/perm:0\nZtransformer/while/body/parallel_0/body/decoder/layer_1_1/ffn/conv2/Tensordot/transpose_1:0\nNtransformer/while/body/parallel_0/body/decoder/layer_1_1/ffn/conv2/Tensordot:0\nTtransformer/while/body/parallel_0/body/decoder/layer_1_1/ffn/layer_postprocess/add:0\nYtransformer/while/body/parallel_0/body/decoder/layer_1_1/ffn/layer_prepostprocess/Shape:0\ndtransformer/while/body/parallel_0/body/decoder/layer_1_1/ffn/layer_prepostprocess/layer_norm/Const:0\nutransformer/while/body/parallel_0/body/decoder/layer_1_1/ffn/layer_prepostprocess/layer_norm/Mean/reduction_indices:0\nctransformer/while/body/parallel_0/body/decoder/layer_1_1/ffn/layer_prepostprocess/layer_norm/Mean:0\nwtransformer/while/body/parallel_0/body/decoder/layer_1_1/ffn/layer_prepostprocess/layer_norm/Mean_1/reduction_indices:0\netransformer/while/body/parallel_0/body/decoder/layer_1_1/ffn/layer_prepostprocess/layer_norm/Mean_1:0\ndtransformer/while/body/parallel_0/body/decoder/layer_1_1/ffn/layer_prepostprocess/layer_norm/Rsqrt:0\nptransformer/while/body/parallel_0/body/decoder/layer_1_1/ffn/layer_prepostprocess/layer_norm/SquaredDifference:0\nbtransformer/while/body/parallel_0/body/decoder/layer_1_1/ffn/layer_prepostprocess/layer_norm/add:0\ndtransformer/while/body/parallel_0/body/decoder/layer_1_1/ffn/layer_prepostprocess/layer_norm/add_1:0\nbtransformer/while/body/parallel_0/body/decoder/layer_1_1/ffn/layer_prepostprocess/layer_norm/mul:0\ndtransformer/while/body/parallel_0/body/decoder/layer_1_1/ffn/layer_prepostprocess/layer_norm/mul_1:0\nbtransformer/while/body/parallel_0/body/decoder/layer_1_1/ffn/layer_prepostprocess/layer_norm/sub:0\ngtransformer/while/body/parallel_0/body/decoder/layer_1_1/ffn/layer_prepostprocess/strided_slice/stack:0\nitransformer/while/body/parallel_0/body/decoder/layer_1_1/ffn/layer_prepostprocess/strided_slice/stack_1:0\nitransformer/while/body/parallel_0/body/decoder/layer_1_1/ffn/layer_prepostprocess/strided_slice/stack_2:0\natransformer/while/body/parallel_0/body/decoder/layer_1_1/ffn/layer_prepostprocess/strided_slice:0\nitransformer/while/body/parallel_0/body/decoder/layer_1_1/ffn/layer_prepostprocess/strided_slice_1/stack:0\nktransformer/while/body/parallel_0/body/decoder/layer_1_1/ffn/layer_prepostprocess/strided_slice_1/stack_1:0\nktransformer/while/body/parallel_0/body/decoder/layer_1_1/ffn/layer_prepostprocess/strided_slice_1/stack_2:0\nctransformer/while/body/parallel_0/body/decoder/layer_1_1/ffn/layer_prepostprocess/strided_slice_1:0\nKtransformer/while/body/parallel_0/body/decoder/layer_prepostprocess/Shape:0\nVtransformer/while/body/parallel_0/body/decoder/layer_prepostprocess/layer_norm/Const:0\ngtransformer/while/body/parallel_0/body/decoder/layer_prepostprocess/layer_norm/Mean/reduction_indices:0\nUtransformer/while/body/parallel_0/body/decoder/layer_prepostprocess/layer_norm/Mean:0\nitransformer/while/body/parallel_0/body/decoder/layer_prepostprocess/layer_norm/Mean_1/reduction_indices:0\nWtransformer/while/body/parallel_0/body/decoder/layer_prepostprocess/layer_norm/Mean_1:0\nVtransformer/while/body/parallel_0/body/decoder/layer_prepostprocess/layer_norm/Rsqrt:0\nbtransformer/while/body/parallel_0/body/decoder/layer_prepostprocess/layer_norm/SquaredDifference:0\nTtransformer/while/body/parallel_0/body/decoder/layer_prepostprocess/layer_norm/add:0\nVtransformer/while/body/parallel_0/body/decoder/layer_prepostprocess/layer_norm/add_1:0\nTtransformer/while/body/parallel_0/body/decoder/layer_prepostprocess/layer_norm/mul:0\nVtransformer/while/body/parallel_0/body/decoder/layer_prepostprocess/layer_norm/mul_1:0\nTtransformer/while/body/parallel_0/body/decoder/layer_prepostprocess/layer_norm/sub:0\nYtransformer/while/body/parallel_0/body/decoder/layer_prepostprocess/strided_slice/stack:0\n[transformer/while/body/parallel_0/body/decoder/layer_prepostprocess/strided_slice/stack_1:0\n[transformer/while/body/parallel_0/body/decoder/layer_prepostprocess/strided_slice/stack_2:0\nStransformer/while/body/parallel_0/body/decoder/layer_prepostprocess/strided_slice:0\n[transformer/while/body/parallel_0/body/decoder/layer_prepostprocess/strided_slice_1/stack:0\n]transformer/while/body/parallel_0/body/decoder/layer_prepostprocess/strided_slice_1/stack_1:0\n]transformer/while/body/parallel_0/body/decoder/layer_prepostprocess/strided_slice_1/stack_2:0\nUtransformer/while/body/parallel_0/body/decoder/layer_prepostprocess/strided_slice_1:0\n\037transformer/while/concat/axis:0\n\032transformer/while/concat:0\n!transformer/while/concat_1/axis:0\n\034transformer/while/concat_1:0\n!transformer/while/concat_2/axis:0\n\034transformer/while/concat_2:0\n!transformer/while/concat_3/axis:0\n\034transformer/while/concat_3:0\n!transformer/while/concat_4/axis:0\n\034transformer/while/concat_4:0\n!transformer/while/concat_5/axis:0\n\034transformer/while/concat_5:0\n!transformer/while/concat_6/axis:0\n\034transformer/while/concat_6:0\n\036transformer/while/cond/Merge:0\n\036transformer/while/cond/Merge:1\n\037transformer/while/cond/Switch:0\n\037transformer/while/cond/Switch:1\n!transformer/while/cond/Switch_1:0\n!transformer/while/cond/Switch_1:1\n transformer/while/cond/pred_id:0\n!transformer/while/cond/switch_f:0\n!transformer/while/cond/switch_t:0\n*transformer/while/cond/zeros_like/Switch:1\n#transformer/while/cond/zeros_like:0\n\036transformer/while/floordiv/y:0\n\034transformer/while/floordiv:0\n transformer/while/floordiv_1/y:0\n\036transformer/while/floordiv_1:0\n transformer/while/floordiv_2/y:0\n\036transformer/while/floordiv_2:0\n transformer/while/floordiv_3/y:0\n\036transformer/while/floordiv_3:0\n)transformer/while/grow_alive_topk_flags:0\n*transformer/while/grow_alive_topk_scores:0\n\'transformer/while/grow_alive_topk_seq:0\n*transformer/while/grow_alive_topk_states:0\n-transformer/while/grow_alive_topk_states_10:0\n-transformer/while/grow_alive_topk_states_11:0\n,transformer/while/grow_alive_topk_states_1:0\n,transformer/while/grow_alive_topk_states_2:0\n,transformer/while/grow_alive_topk_states_3:0\n,transformer/while/grow_alive_topk_states_4:0\n,transformer/while/grow_alive_topk_states_5:0\n,transformer/while/grow_alive_topk_states_6:0\n,transformer/while/grow_alive_topk_states_7:0\n,transformer/while/grow_alive_topk_states_8:0\n,transformer/while/grow_alive_topk_states_9:0\n,transformer/while/grow_finished_topk_flags:0\n-transformer/while/grow_finished_topk_scores:0\n*transformer/while/grow_finished_topk_seq:0\n\031transformer/while/mod/y:0\n\027transformer/while/mod:0\n\035transformer/while/mul/Enter:0\n\031transformer/while/mul/y:0\n\027transformer/while/mul:0\n\032transformer/while/mul_10:0\n\032transformer/while/mul_11:0\n\032transformer/while/mul_12:0\n\034transformer/while/mul_13/y:0\n\032transformer/while/mul_13:0\n\032transformer/while/mul_14:0\n\034transformer/while/mul_15/y:0\n\032transformer/while/mul_15:0\n\034transformer/while/mul_16/y:0\n\032transformer/while/mul_16:0\n\034transformer/while/mul_17/y:0\n\032transformer/while/mul_17:0\n\034transformer/while/mul_18/y:0\n\032transformer/while/mul_18:0\n\034transformer/while/mul_19/y:0\n\032transformer/while/mul_19:0\n\031transformer/while/mul_1:0\n\031transformer/while/mul_2:0\n\031transformer/while/mul_3:0\n\031transformer/while/mul_4:0\n\031transformer/while/mul_5:0\n\031transformer/while/mul_6:0\n\031transformer/while/mul_7:0\n\031transformer/while/mul_8:0\n\031transformer/while/mul_9:0\n3transformer/while/parallel_0/transformer/Identity:0\n\037transformer/while/range/delta:0\n\037transformer/while/range/start:0\n\031transformer/while/range:0\n!transformer/while/range_1/delta:0\n!transformer/while/range_1/start:0\n\033transformer/while/range_1:0\n!transformer/while/range_2/delta:0\n!transformer/while/range_2/start:0\n\033transformer/while/range_2:0\n#transformer/while/split/split_dim:0\n\031transformer/while/split:0\n\031transformer/while/stack:0\n\033transformer/while/stack_1:0\n\033transformer/while/stack_2:0\n\'transformer/while/strided_slice/stack:0\n)transformer/while/strided_slice/stack_1:0\n)transformer/while/strided_slice/stack_2:0\n!transformer/while/strided_slice:0\n)transformer/while/strided_slice_1/stack:0\n+transformer/while/strided_slice_1/stack_1:0\n+transformer/while/strided_slice_1/stack_2:0\n*transformer/while/strided_slice_10/stack:0\n,transformer/while/strided_slice_10/stack_1:0\n,transformer/while/strided_slice_10/stack_2:0\n$transformer/while/strided_slice_10:0\n*transformer/while/strided_slice_11/stack:0\n,transformer/while/strided_slice_11/stack_1:0\n,transformer/while/strided_slice_11/stack_2:0\n$transformer/while/strided_slice_11:0\n*transformer/while/strided_slice_12/stack:0\n,transformer/while/strided_slice_12/stack_1:0\n,transformer/while/strided_slice_12/stack_2:0\n$transformer/while/strided_slice_12:0\n*transformer/while/strided_slice_13/stack:0\n,transformer/while/strided_slice_13/stack_1:0\n,transformer/while/strided_slice_13/stack_2:0\n$transformer/while/strided_slice_13:0\n*transformer/while/strided_slice_14/stack:0\n,transformer/while/strided_slice_14/stack_1:0\n,transformer/while/strided_slice_14/stack_2:0\n$transformer/while/strided_slice_14:0\n*transformer/while/strided_slice_15/stack:0\n,transformer/while/strided_slice_15/stack_1:0\n,transformer/while/strided_slice_15/stack_2:0\n$transformer/while/strided_slice_15:0\n*transformer/while/strided_slice_16/stack:0\n,transformer/while/strided_slice_16/stack_1:0\n,transformer/while/strided_slice_16/stack_2:0\n$transformer/while/strided_slice_16:0\n*transformer/while/strided_slice_17/stack:0\n,transformer/while/strided_slice_17/stack_1:0\n,transformer/while/strided_slice_17/stack_2:0\n$transformer/while/strided_slice_17:0\n*transformer/while/strided_slice_18/stack:0\n,transformer/while/strided_slice_18/stack_1:0\n,transformer/while/strided_slice_18/stack_2:0\n$transformer/while/strided_slice_18:0\n*transformer/while/strided_slice_19/stack:0\n,transformer/while/strided_slice_19/stack_1:0\n,transformer/while/strided_slice_19/stack_2:0\n$transformer/while/strided_slice_19:0\n#transformer/while/strided_slice_1:0\n)transformer/while/strided_slice_2/stack:0\n+transformer/while/strided_slice_2/stack_1:0\n+transformer/while/strided_slice_2/stack_2:0\n*transformer/while/strided_slice_20/stack:0\n,transformer/while/strided_slice_20/stack_1:0\n,transformer/while/strided_slice_20/stack_2:0\n$transformer/while/strided_slice_20:0\n*transformer/while/strided_slice_21/stack:0\n,transformer/while/strided_slice_21/stack_1:0\n,transformer/while/strided_slice_21/stack_2:0\n$transformer/while/strided_slice_21:0\n*transformer/while/strided_slice_22/stack:0\n,transformer/while/strided_slice_22/stack_1:0\n,transformer/while/strided_slice_22/stack_2:0\n$transformer/while/strided_slice_22:0\n*transformer/while/strided_slice_23/stack:0\n,transformer/while/strided_slice_23/stack_1:0\n,transformer/while/strided_slice_23/stack_2:0\n$transformer/while/strided_slice_23:0\n*transformer/while/strided_slice_24/stack:0\n,transformer/while/strided_slice_24/stack_1:0\n,transformer/while/strided_slice_24/stack_2:0\n$transformer/while/strided_slice_24:0\n*transformer/while/strided_slice_25/stack:0\n,transformer/while/strided_slice_25/stack_1:0\n,transformer/while/strided_slice_25/stack_2:0\n$transformer/while/strided_slice_25:0\n*transformer/while/strided_slice_26/stack:0\n,transformer/while/strided_slice_26/stack_1:0\n,transformer/while/strided_slice_26/stack_2:0\n$transformer/while/strided_slice_26:0\n*transformer/while/strided_slice_27/stack:0\n,transformer/while/strided_slice_27/stack_1:0\n,transformer/while/strided_slice_27/stack_2:0\n$transformer/while/strided_slice_27:0\n*transformer/while/strided_slice_28/stack:0\n,transformer/while/strided_slice_28/stack_1:0\n,transformer/while/strided_slice_28/stack_2:0\n$transformer/while/strided_slice_28:0\n*transformer/while/strided_slice_29/stack:0\n,transformer/while/strided_slice_29/stack_1:0\n,transformer/while/strided_slice_29/stack_2:0\n$transformer/while/strided_slice_29:0\n#transformer/while/strided_slice_2:0\n)transformer/while/strided_slice_3/stack:0\n+transformer/while/strided_slice_3/stack_1:0\n+transformer/while/strided_slice_3/stack_2:0\n*transformer/while/strided_slice_30/stack:0\n,transformer/while/strided_slice_30/stack_1:0\n,transformer/while/strided_slice_30/stack_2:0\n$transformer/while/strided_slice_30:0\n*transformer/while/strided_slice_31/stack:0\n,transformer/while/strided_slice_31/stack_1:0\n,transformer/while/strided_slice_31/stack_2:0\n$transformer/while/strided_slice_31:0\n*transformer/while/strided_slice_32/stack:0\n,transformer/while/strided_slice_32/stack_1:0\n,transformer/while/strided_slice_32/stack_2:0\n$transformer/while/strided_slice_32:0\n*transformer/while/strided_slice_33/stack:0\n,transformer/while/strided_slice_33/stack_1:0\n,transformer/while/strided_slice_33/stack_2:0\n$transformer/while/strided_slice_33:0\n*transformer/while/strided_slice_34/stack:0\n,transformer/while/strided_slice_34/stack_1:0\n,transformer/while/strided_slice_34/stack_2:0\n$transformer/while/strided_slice_34:0\n*transformer/while/strided_slice_35/stack:0\n,transformer/while/strided_slice_35/stack_1:0\n,transformer/while/strided_slice_35/stack_2:0\n$transformer/while/strided_slice_35:0\n*transformer/while/strided_slice_36/stack:0\n,transformer/while/strided_slice_36/stack_1:0\n,transformer/while/strided_slice_36/stack_2:0\n$transformer/while/strided_slice_36:0\n*transformer/while/strided_slice_37/stack:0\n,transformer/while/strided_slice_37/stack_1:0\n,transformer/while/strided_slice_37/stack_2:0\n$transformer/while/strided_slice_37:0\n*transformer/while/strided_slice_38/stack:0\n,transformer/while/strided_slice_38/stack_1:0\n,transformer/while/strided_slice_38/stack_2:0\n$transformer/while/strided_slice_38:0\n*transformer/while/strided_slice_39/stack:0\n,transformer/while/strided_slice_39/stack_1:0\n,transformer/while/strided_slice_39/stack_2:0\n$transformer/while/strided_slice_39:0\n#transformer/while/strided_slice_3:0\n)transformer/while/strided_slice_4/stack:0\n+transformer/while/strided_slice_4/stack_1:0\n+transformer/while/strided_slice_4/stack_2:0\n*transformer/while/strided_slice_40/stack:0\n,transformer/while/strided_slice_40/stack_1:0\n,transformer/while/strided_slice_40/stack_2:0\n$transformer/while/strided_slice_40:0\n*transformer/while/strided_slice_41/stack:0\n,transformer/while/strided_slice_41/stack_1:0\n,transformer/while/strided_slice_41/stack_2:0\n$transformer/while/strided_slice_41:0\n*transformer/while/strided_slice_42/stack:0\n,transformer/while/strided_slice_42/stack_1:0\n,transformer/while/strided_slice_42/stack_2:0\n$transformer/while/strided_slice_42:0\n*transformer/while/strided_slice_43/stack:0\n,transformer/while/strided_slice_43/stack_1:0\n,transformer/while/strided_slice_43/stack_2:0\n$transformer/while/strided_slice_43:0\n*transformer/while/strided_slice_44/stack:0\n,transformer/while/strided_slice_44/stack_1:0\n,transformer/while/strided_slice_44/stack_2:0\n$transformer/while/strided_slice_44:0\n*transformer/while/strided_slice_45/stack:0\n,transformer/while/strided_slice_45/stack_1:0\n,transformer/while/strided_slice_45/stack_2:0\n$transformer/while/strided_slice_45:0\n*transformer/while/strided_slice_46/stack:0\n,transformer/while/strided_slice_46/stack_1:0\n,transformer/while/strided_slice_46/stack_2:0\n$transformer/while/strided_slice_46:0\n*transformer/while/strided_slice_47/stack:0\n,transformer/while/strided_slice_47/stack_1:0\n,transformer/while/strided_slice_47/stack_2:0\n$transformer/while/strided_slice_47:0\n*transformer/while/strided_slice_48/stack:0\n,transformer/while/strided_slice_48/stack_1:0\n,transformer/while/strided_slice_48/stack_2:0\n$transformer/while/strided_slice_48:0\n*transformer/while/strided_slice_49/stack:0\n,transformer/while/strided_slice_49/stack_1:0\n,transformer/while/strided_slice_49/stack_2:0\n$transformer/while/strided_slice_49:0\n#transformer/while/strided_slice_4:0\n)transformer/while/strided_slice_5/stack:0\n+transformer/while/strided_slice_5/stack_1:0\n+transformer/while/strided_slice_5/stack_2:0\n*transformer/while/strided_slice_50/stack:0\n,transformer/while/strided_slice_50/stack_1:0\n,transformer/while/strided_slice_50/stack_2:0\n$transformer/while/strided_slice_50:0\n*transformer/while/strided_slice_51/stack:0\n,transformer/while/strided_slice_51/stack_1:0\n,transformer/while/strided_slice_51/stack_2:0\n$transformer/while/strided_slice_51:0\n*transformer/while/strided_slice_52/stack:0\n,transformer/while/strided_slice_52/stack_1:0\n,transformer/while/strided_slice_52/stack_2:0\n$transformer/while/strided_slice_52:0\n*transformer/while/strided_slice_53/stack:0\n,transformer/while/strided_slice_53/stack_1:0\n,transformer/while/strided_slice_53/stack_2:0\n$transformer/while/strided_slice_53:0\n*transformer/while/strided_slice_54/stack:0\n,transformer/while/strided_slice_54/stack_1:0\n,transformer/while/strided_slice_54/stack_2:0\n$transformer/while/strided_slice_54:0\n*transformer/while/strided_slice_55/stack:0\n,transformer/while/strided_slice_55/stack_1:0\n,transformer/while/strided_slice_55/stack_2:0\n$transformer/while/strided_slice_55:0\n*transformer/while/strided_slice_56/Enter:0\n,transformer/while/strided_slice_56/stack/0:0\n*transformer/while/strided_slice_56/stack:0\n.transformer/while/strided_slice_56/stack_1/0:0\n,transformer/while/strided_slice_56/stack_1:0\n,transformer/while/strided_slice_56/stack_2:0\n$transformer/while/strided_slice_56:0\n*transformer/while/strided_slice_57/Enter:0\n,transformer/while/strided_slice_57/stack/0:0\n,transformer/while/strided_slice_57/stack/1:0\n,transformer/while/strided_slice_57/stack/3:0\n*transformer/while/strided_slice_57/stack:0\n.transformer/while/strided_slice_57/stack_1/0:0\n.transformer/while/strided_slice_57/stack_1/1:0\n,transformer/while/strided_slice_57/stack_1:0\n,transformer/while/strided_slice_57/stack_2:0\n$transformer/while/strided_slice_57:0\n*transformer/while/strided_slice_58/stack:0\n,transformer/while/strided_slice_58/stack_1:0\n,transformer/while/strided_slice_58/stack_2:0\n$transformer/while/strided_slice_58:0\n*transformer/while/strided_slice_59/stack:0\n,transformer/while/strided_slice_59/stack_1:0\n,transformer/while/strided_slice_59/stack_2:0\n$transformer/while/strided_slice_59:0\n#transformer/while/strided_slice_5:0\n)transformer/while/strided_slice_6/stack:0\n+transformer/while/strided_slice_6/stack_1:0\n+transformer/while/strided_slice_6/stack_2:0\n*transformer/while/strided_slice_60/stack:0\n,transformer/while/strided_slice_60/stack_1:0\n,transformer/while/strided_slice_60/stack_2:0\n$transformer/while/strided_slice_60:0\n*transformer/while/strided_slice_61/stack:0\n,transformer/while/strided_slice_61/stack_1:0\n,transformer/while/strided_slice_61/stack_2:0\n$transformer/while/strided_slice_61:0\n*transformer/while/strided_slice_62/stack:0\n,transformer/while/strided_slice_62/stack_1:0\n,transformer/while/strided_slice_62/stack_2:0\n$transformer/while/strided_slice_62:0\n*transformer/while/strided_slice_63/stack:0\n,transformer/while/strided_slice_63/stack_1:0\n,transformer/while/strided_slice_63/stack_2:0\n$transformer/while/strided_slice_63:0\n*transformer/while/strided_slice_64/stack:0\n,transformer/while/strided_slice_64/stack_1:0\n,transformer/while/strided_slice_64/stack_2:0\n$transformer/while/strided_slice_64:0\n*transformer/while/strided_slice_65/stack:0\n,transformer/while/strided_slice_65/stack_1:0\n,transformer/while/strided_slice_65/stack_2:0\n$transformer/while/strided_slice_65:0\n*transformer/while/strided_slice_66/stack:0\n,transformer/while/strided_slice_66/stack_1:0\n,transformer/while/strided_slice_66/stack_2:0\n$transformer/while/strided_slice_66:0\n*transformer/while/strided_slice_67/stack:0\n,transformer/while/strided_slice_67/stack_1:0\n,transformer/while/strided_slice_67/stack_2:0\n$transformer/while/strided_slice_67:0\n*transformer/while/strided_slice_68/stack:0\n,transformer/while/strided_slice_68/stack_1:0\n,transformer/while/strided_slice_68/stack_2:0\n$transformer/while/strided_slice_68:0\n*transformer/while/strided_slice_69/stack:0\n,transformer/while/strided_slice_69/stack_1:0\n,transformer/while/strided_slice_69/stack_2:0\n$transformer/while/strided_slice_69:0\n#transformer/while/strided_slice_6:0\n)transformer/while/strided_slice_7/stack:0\n+transformer/while/strided_slice_7/stack_1:0\n+transformer/while/strided_slice_7/stack_2:0\n*transformer/while/strided_slice_70/stack:0\n,transformer/while/strided_slice_70/stack_1:0\n,transformer/while/strided_slice_70/stack_2:0\n$transformer/while/strided_slice_70:0\n*transformer/while/strided_slice_71/stack:0\n,transformer/while/strided_slice_71/stack_1:0\n,transformer/while/strided_slice_71/stack_2:0\n$transformer/while/strided_slice_71:0\n*transformer/while/strided_slice_72/stack:0\n,transformer/while/strided_slice_72/stack_1:0\n,transformer/while/strided_slice_72/stack_2:0\n$transformer/while/strided_slice_72:0\n*transformer/while/strided_slice_73/stack:0\n,transformer/while/strided_slice_73/stack_1:0\n,transformer/while/strided_slice_73/stack_2:0\n$transformer/while/strided_slice_73:0\n*transformer/while/strided_slice_74/stack:0\n,transformer/while/strided_slice_74/stack_1:0\n,transformer/while/strided_slice_74/stack_2:0\n$transformer/while/strided_slice_74:0\n*transformer/while/strided_slice_75/stack:0\n,transformer/while/strided_slice_75/stack_1:0\n,transformer/while/strided_slice_75/stack_2:0\n$transformer/while/strided_slice_75:0\n*transformer/while/strided_slice_76/stack:0\n,transformer/while/strided_slice_76/stack_1:0\n,transformer/while/strided_slice_76/stack_2:0\n$transformer/while/strided_slice_76:0\n*transformer/while/strided_slice_77/stack:0\n,transformer/while/strided_slice_77/stack_1:0\n,transformer/while/strided_slice_77/stack_2:0\n$transformer/while/strided_slice_77:0\n*transformer/while/strided_slice_78/stack:0\n,transformer/while/strided_slice_78/stack_1:0\n,transformer/while/strided_slice_78/stack_2:0\n$transformer/while/strided_slice_78:0\n*transformer/while/strided_slice_79/stack:0\n,transformer/while/strided_slice_79/stack_1:0\n,transformer/while/strided_slice_79/stack_2:0\n$transformer/while/strided_slice_79:0\n#transformer/while/strided_slice_7:0\n)transformer/while/strided_slice_8/stack:0\n+transformer/while/strided_slice_8/stack_1:0\n+transformer/while/strided_slice_8/stack_2:0\n*transformer/while/strided_slice_80/stack:0\n,transformer/while/strided_slice_80/stack_1:0\n,transformer/while/strided_slice_80/stack_2:0\n$transformer/while/strided_slice_80:0\n*transformer/while/strided_slice_81/stack:0\n,transformer/while/strided_slice_81/stack_1:0\n,transformer/while/strided_slice_81/stack_2:0\n$transformer/while/strided_slice_81:0\n*transformer/while/strided_slice_82/stack:0\n,transformer/while/strided_slice_82/stack_1:0\n,transformer/while/strided_slice_82/stack_2:0\n$transformer/while/strided_slice_82:0\n*transformer/while/strided_slice_83/stack:0\n,transformer/while/strided_slice_83/stack_1:0\n,transformer/while/strided_slice_83/stack_2:0\n$transformer/while/strided_slice_83:0\n*transformer/while/strided_slice_84/stack:0\n,transformer/while/strided_slice_84/stack_1:0\n,transformer/while/strided_slice_84/stack_2:0\n$transformer/while/strided_slice_84:0\n*transformer/while/strided_slice_85/stack:0\n,transformer/while/strided_slice_85/stack_1:0\n,transformer/while/strided_slice_85/stack_2:0\n$transformer/while/strided_slice_85:0\n*transformer/while/strided_slice_86/stack:0\n,transformer/while/strided_slice_86/stack_1:0\n,transformer/while/strided_slice_86/stack_2:0\n$transformer/while/strided_slice_86:0\n*transformer/while/strided_slice_87/stack:0\n,transformer/while/strided_slice_87/stack_1:0\n,transformer/while/strided_slice_87/stack_2:0\n$transformer/while/strided_slice_87:0\n*transformer/while/strided_slice_88/stack:0\n,transformer/while/strided_slice_88/stack_1:0\n,transformer/while/strided_slice_88/stack_2:0\n$transformer/while/strided_slice_88:0\n*transformer/while/strided_slice_89/stack:0\n,transformer/while/strided_slice_89/stack_1:0\n,transformer/while/strided_slice_89/stack_2:0\n$transformer/while/strided_slice_89:0\n#transformer/while/strided_slice_8:0\n)transformer/while/strided_slice_9/stack:0\n+transformer/while/strided_slice_9/stack_1:0\n+transformer/while/strided_slice_9/stack_2:0\n#transformer/while/strided_slice_9:0\n\027transformer/while/sub:0\n\033transformer/while/sub_1/x:0\n\031transformer/while/sub_1:0\n^transformer/while/symbol_modality_10069_256/parallel_0/symbol_modality_10069_256/shared/Cast:0\nhtransformer/while/symbol_modality_10069_256/parallel_0/symbol_modality_10069_256/shared/ExpandDims/dim:0\ndtransformer/while/symbol_modality_10069_256/parallel_0/symbol_modality_10069_256/shared/ExpandDims:0\ngtransformer/while/symbol_modality_10069_256/parallel_0/symbol_modality_10069_256/shared/GatherV2/axis:0\nbtransformer/while/symbol_modality_10069_256/parallel_0/symbol_modality_10069_256/shared/GatherV2:0\ndtransformer/while/symbol_modality_10069_256/parallel_0/symbol_modality_10069_256/shared/NotEqual/y:0\nbtransformer/while/symbol_modality_10069_256/parallel_0/symbol_modality_10069_256/shared/NotEqual:0\natransformer/while/symbol_modality_10069_256/parallel_0/symbol_modality_10069_256/shared/Squeeze:0\netransformer/while/symbol_modality_10069_256/parallel_0/symbol_modality_10069_256/shared/concat/axis:0\n`transformer/while/symbol_modality_10069_256/parallel_0/symbol_modality_10069_256/shared/concat:0\n\200\001transformer/while/symbol_modality_10069_256/parallel_0/symbol_modality_10069_256/shared/convert_gradient_to_tensor_HBc3xYw22Mw:0\n_transformer/while/symbol_modality_10069_256/parallel_0/symbol_modality_10069_256/shared/mul/y:0\n]transformer/while/symbol_modality_10069_256/parallel_0/symbol_modality_10069_256/shared/mul:0\n_transformer/while/symbol_modality_10069_256/parallel_0/symbol_modality_10069_256/shared/mul_1:0\nbtransformer/while/symbol_modality_10069_256_1/parallel_0/symbol_modality_10069_256/shared/MatMul:0\nitransformer/while/symbol_modality_10069_256_1/parallel_0/symbol_modality_10069_256/shared/Reshape/shape:0\nctransformer/while/symbol_modality_10069_256_1/parallel_0/symbol_modality_10069_256/shared/Reshape:0\nmtransformer/while/symbol_modality_10069_256_1/parallel_0/symbol_modality_10069_256/shared/Reshape_1/shape/2:0\nmtransformer/while/symbol_modality_10069_256_1/parallel_0/symbol_modality_10069_256/shared/Reshape_1/shape/3:0\nmtransformer/while/symbol_modality_10069_256_1/parallel_0/symbol_modality_10069_256/shared/Reshape_1/shape/4:0\nktransformer/while/symbol_modality_10069_256_1/parallel_0/symbol_modality_10069_256/shared/Reshape_1/shape:0\netransformer/while/symbol_modality_10069_256_1/parallel_0/symbol_modality_10069_256/shared/Reshape_1:0\natransformer/while/symbol_modality_10069_256_1/parallel_0/symbol_modality_10069_256/shared/Shape:0\ngtransformer/while/symbol_modality_10069_256_1/parallel_0/symbol_modality_10069_256/shared/concat/axis:0\nbtransformer/while/symbol_modality_10069_256_1/parallel_0/symbol_modality_10069_256/shared/concat:0\n\202\001transformer/while/symbol_modality_10069_256_1/parallel_0/symbol_modality_10069_256/shared/convert_gradient_to_tensor_HBc3xYw22Mw:0\notransformer/while/symbol_modality_10069_256_1/parallel_0/symbol_modality_10069_256/shared/strided_slice/stack:0\nqtransformer/while/symbol_modality_10069_256_1/parallel_0/symbol_modality_10069_256/shared/strided_slice/stack_1:0\nqtransformer/while/symbol_modality_10069_256_1/parallel_0/symbol_modality_10069_256/shared/strided_slice/stack_2:0\nitransformer/while/symbol_modality_10069_256_1/parallel_0/symbol_modality_10069_256/shared/strided_slice:0\nqtransformer/while/symbol_modality_10069_256_1/parallel_0/symbol_modality_10069_256/shared/strided_slice_1/stack:0\nstransformer/while/symbol_modality_10069_256_1/parallel_0/symbol_modality_10069_256/shared/strided_slice_1/stack_1:0\nstransformer/while/symbol_modality_10069_256_1/parallel_0/symbol_modality_10069_256/shared/strided_slice_1/stack_2:0\nktransformer/while/symbol_modality_10069_256_1/parallel_0/symbol_modality_10069_256/shared/strided_slice_1:0\n\035transformer/while/truediv/y:0\n\033transformer/while/truediv:0\n\035transformer/while/truediv_1:0\n\037transformer/while/truediv_2/y:0\n\035transformer/while/truediv_2:0\n\035transformer/while/truediv_3:0\n\037transformer/while/zeros/Const:0\n transformer/while/zeros/Less/y:0\n\036transformer/while/zeros/Less:0\n\037transformer/while/zeros/mul/y:0\n\035transformer/while/zeros/mul:0\n!transformer/while/zeros/mul_1/y:0\n\037transformer/while/zeros/mul_1:0\n\"transformer/while/zeros/packed/1:0\n\"transformer/while/zeros/packed/2:0\n transformer/while/zeros/packed:0\n\031transformer/while/zeros:0\022d\nNtransformer/body/decoder/layer_1/self_attention/multihead_attention/k/kernel:0\022\022read_78/RefEnter:0\022I\n3transformer/body/decoder/layer_0/ffn/conv2/kernel:0\022\022read_73/RefEnter:0\022O\n9transformer/symbol_modality_10069_256/shared/weights_11:0\022\022read_54/RefEnter:0\022f\nPtransformer/body/decoder/layer_0/encdec_attention/multihead_attention/q/kernel:0\022\022read_67/RefEnter:0\022a\nKtransformer/body/decoder/layer_prepostprocess/layer_norm/layer_norm_scale:0\022\022read_91/RefEnter:0\022N\n8transformer/symbol_modality_10069_256/shared/weights_7:0\022\022read_50/RefEnter:0\022N\n8transformer/symbol_modality_10069_256/shared/weights_2:0\022\022read_45/RefEnter:0\022G\n1transformer/body/decoder/layer_0/ffn/conv2/bias:0\022\022read_74/RefEnter:0\022u\n_transformer/body/decoder/layer_1/encdec_attention/multihead_attention/output_transform/kernel:0\022\022read_84/RefEnter:0\022d\nNtransformer/body/decoder/layer_0/self_attention/multihead_attention/k/kernel:0\022\022read_62/RefEnter:0\022I\n3transformer/body/decoder/layer_0/ffn/conv1/kernel:0\022\022read_71/RefEnter:0\022O\n9transformer/symbol_modality_10069_256/shared/weights_12:0\022\022read_55/RefEnter:0\022l\nVtransformer/body/decoder/layer_0/ffn/layer_prepostprocess/layer_norm/layer_norm_bias:0\022\022read_70/RefEnter:0\022r\nDtransformer/attention_bias_lower_triangle/attention_bias_local/mul:0\022*transformer/while/strided_slice_57/Enter:0\022N\n8transformer/symbol_modality_10069_256/shared/weights_8:0\022\022read_51/RefEnter:0\022N\n8transformer/symbol_modality_10069_256/shared/weights_3:0\022\022read_46/RefEnter:0\022G\n1transformer/body/decoder/layer_1/ffn/conv1/bias:0\022\022read_88/RefEnter:0\022y\nctransformer/body/decoder/layer_1/encdec_attention/layer_prepostprocess/layer_norm/layer_norm_bias:0\022\022read_82/RefEnter:0\022O\n9transformer/symbol_modality_10069_256/shared/weights_13:0\022\022read_56/RefEnter:0\022y\nctransformer/body/decoder/layer_0/encdec_attention/layer_prepostprocess/layer_norm/layer_norm_bias:0\022\022read_66/RefEnter:0\022x\nbtransformer/body/decoder/layer_0/self_attention/layer_prepostprocess/layer_norm/layer_norm_scale:0\022\022read_59/RefEnter:0\022m\nWtransformer/body/decoder/layer_1/ffn/layer_prepostprocess/layer_norm/layer_norm_scale:0\022\022read_85/RefEnter:0\022z\ndtransformer/body/decoder/layer_1/encdec_attention/layer_prepostprocess/layer_norm/layer_norm_scale:0\022\022read_81/RefEnter:0\022X\n*transformer/get_timing_signal_1d/Reshape:0\022*transformer/while/strided_slice_56/Enter:0\022N\n8transformer/symbol_modality_10069_256/shared/weights_9:0\022\022read_52/RefEnter:0\022I\n3transformer/body/decoder/layer_1/ffn/conv2/kernel:0\022\022read_89/RefEnter:0\022N\n8transformer/symbol_modality_10069_256/shared/weights_4:0\022\022read_47/RefEnter:0\022f\nPtransformer/body/decoder/layer_1/encdec_attention/multihead_attention/q/kernel:0\022\022read_83/RefEnter:0\022u\n_transformer/body/decoder/layer_0/encdec_attention/multihead_attention/output_transform/kernel:0\022\022read_68/RefEnter:0\022z\ndtransformer/body/decoder/layer_0/encdec_attention/layer_prepostprocess/layer_norm/layer_norm_scale:0\022\022read_65/RefEnter:0\022m\nWtransformer/body/decoder/layer_0/ffn/layer_prepostprocess/layer_norm/layer_norm_scale:0\022\022read_69/RefEnter:0\022s\n]transformer/body/decoder/layer_1/self_attention/multihead_attention/output_transform/kernel:0\022\022read_80/RefEnter:0\022O\n9transformer/symbol_modality_10069_256/shared/weights_14:0\022\022read_57/RefEnter:0\022x\nbtransformer/body/decoder/layer_1/self_attention/layer_prepostprocess/layer_norm/layer_norm_scale:0\022\022read_75/RefEnter:0\022d\nNtransformer/body/decoder/layer_1/self_attention/multihead_attention/v/kernel:0\022\022read_79/RefEnter:0\022G\n1transformer/body/decoder/layer_1/ffn/conv2/bias:0\022\022read_90/RefEnter:0\022I\n3transformer/body/decoder/layer_1/ffn/conv1/kernel:0\022\022read_87/RefEnter:0\022N\n8transformer/symbol_modality_10069_256/shared/weights_5:0\022\022read_48/RefEnter:0\022`\nJtransformer/body/decoder/layer_prepostprocess/layer_norm/layer_norm_bias:0\022\022read_92/RefEnter:0\022N\n8transformer/symbol_modality_10069_256/shared/weights_0:0\022\022read_43/RefEnter:0\022d\nNtransformer/body/decoder/layer_1/self_attention/multihead_attention/q/kernel:0\022\022read_77/RefEnter:0\022l\nVtransformer/body/decoder/layer_1/ffn/layer_prepostprocess/layer_norm/layer_norm_bias:0\022\022read_86/RefEnter:0\022w\natransformer/body/decoder/layer_0/self_attention/layer_prepostprocess/layer_norm/layer_norm_bias:0\022\022read_60/RefEnter:0\022G\n1transformer/body/decoder/layer_0/ffn/conv1/bias:0\022\022read_72/RefEnter:0\022O\n9transformer/symbol_modality_10069_256/shared/weights_15:0\022\022read_58/RefEnter:0\0226\n\021transformer/add:0\022!transformer/while/ToFloat/Enter:0\022?\n\036transformer/strided_slice_10:0\022\035transformer/while/mul/Enter:0\022O\n9transformer/symbol_modality_10069_256/shared/weights_10:0\022\022read_53/RefEnter:0\022w\natransformer/body/decoder/layer_1/self_attention/layer_prepostprocess/layer_norm/layer_norm_bias:0\022\022read_76/RefEnter:0\022d\nNtransformer/body/decoder/layer_0/self_attention/multihead_attention/v/kernel:0\022\022read_63/RefEnter:0\022N\n8transformer/symbol_modality_10069_256/shared/weights_6:0\022\022read_49/RefEnter:0\022d\nNtransformer/body/decoder/layer_0/self_attention/multihead_attention/q/kernel:0\022\022read_61/RefEnter:0\022N\n8transformer/symbol_modality_10069_256/shared/weights_1:0\022\022read_44/RefEnter:0\022s\n]transformer/body/decoder/layer_0/self_attention/multihead_attention/output_transform/kernel:0\022\022read_64/RefEnter:0R\031transformer/while/Enter:0R\033transformer/while/Enter_1:0R\033transformer/while/Enter_2:0R\033transformer/while/Enter_3:0R\033transformer/while/Enter_4:0R\033transformer/while/Enter_5:0R\033transformer/while/Enter_6:0R\033transformer/while/Enter_7:0R\033transformer/while/Enter_8:0R\033transformer/while/Enter_9:0R\034transformer/while/Enter_10:0R\034transformer/while/Enter_11:0R\034transformer/while/Enter_12:0R\034transformer/while/Enter_13:0R\034transformer/while/Enter_14:0R\034transformer/while/Enter_15:0R\034transformer/while/Enter_16:0R\034transformer/while/Enter_17:0b\271\003\n\266\003\n transformer/while/cond/cond_text\022 transformer/while/cond/pred_id:0\032!transformer/while/cond/switch_t:0 \001*\312\002\n\036transformer/while/Reshape_13:0\n transformer/while/cond/pred_id:0\n!transformer/while/cond/switch_t:0\n*transformer/while/cond/zeros_like/Switch:1\n#transformer/while/cond/zeros_like:0\022D\n transformer/while/cond/pred_id:0\022 transformer/while/cond/pred_id:0\022L\n\036transformer/while/Reshape_13:0\022*transformer/while/cond/zeros_like/Switch:1b\245\003\n\242\003\n\"transformer/while/cond/cond_text_1\022 transformer/while/cond/pred_id:0\032!transformer/while/cond/switch_f:0*\266\002\n\036transformer/while/Reshape_13:0\n!transformer/while/cond/Switch_1:0\n!transformer/while/cond/Switch_1:1\n transformer/while/cond/pred_id:0\n!transformer/while/cond/switch_f:0\022D\n transformer/while/cond/pred_id:0\022 transformer/while/cond/pred_id:0\022C\n\036transformer/while/Reshape_13:0\022!transformer/while/cond/Switch_1:0"
      }
    }
  }
  signature_def {
    key: "serving_default"
    value {
      inputs {
        key: "input"
        value {
          name: "serialized_example:0"
          dtype: DT_STRING
          tensor_shape {
            dim {
              size: -1
            }
          }
        }
      }
      outputs {
        key: "batch_prediction_key"
        value {
          name: "DatasetToSingleElement:0"
          dtype: DT_INT32
          tensor_shape {
            dim {
              size: -1
            }
            dim {
              size: 1
            }
          }
        }
      }
      outputs {
        key: "outputs"
        value {
          name: "transformer/strided_slice_12:0"
          dtype: DT_INT32
          tensor_shape {
            dim {
              size: -1
            }
            dim {
              size: -1
            }
          }
        }
      }
      outputs {
        key: "scores"
        value {
          name: "transformer/strided_slice_13:0"
          dtype: DT_FLOAT
          tensor_shape {
            dim {
              size: -1
            }
          }
        }
      }
      method_name: "tensorflow/serving/predict"
    }
  }
}
